LSTMAutoEncoder/LSTM_20240612_103435_best.pth (torch, 318288 bytes, 18 tensors)

encoder.lstm.weight_ih_l0 f4 [200, 38]
00000000: 61fe 3fbc e066 003e b55b 193e 5188 043e
00000010: d8dc 063e ef49 133d 47e9 a03e f464 c03d
00000020: 82b6 f83e 1290 7f3d b12e 293d 749e 29bb
00000030: b10b 24bd 3991 d5bc c5db 8d3e 328d d9bc
00000040: 9998 fe3e 6129 0f3e 82a8 43bd 48b8 2bbd
00000050: eaaf 7ebe 19cc 35be f03b 1dbe c52d 6d3d
00000060: a220 3a3e 584d ef3d e9ef e1be 03a2 d4be
00000070: 14e8 b5be fc35 00be 811c 9d3e 6f08 163f
00000080: a643 1a3d 0190 763e 9994 1bbe 34e3 103e
00000090: ca42 1cbe 6373 6dbd ddc1 9d3b 16e1 063d
000000a0: 380c 2f3d 6f12 a33d 7a96 b8ba f8ae d5bb
000000b0: 1ec0 023c 2084 33bc 7d8f eabb 3191 073d
000000c0: bae7 9b3b de20 a03d d2dc 8abb 3a8c 5abb
000000d0: 7316 33bb 4ff8 2a3d b166 0b3c 7c63 ab3d
000000e0: b31e d73a eaf9 acbb 3a4b 543c 975e b7bb
000000f0: 328e c63b dea8 6b3c 819c 8abb 3d62 053c
00000100: c608 6e3c 0d0a 413c 60bd 223c 85c5 a43c
00000110: 3bb4 8fb9 3b35 9a3c 2630 5a3c 87c7 0a3b
00000120: 91a5 8b3c 14e0 8f38 521f 803c ad4d a73c
00000130: 3181 9abc c7b4 bfbc bb84 08bd d2f4 1ebd
00000140: cdd6 2f3d 257a afbd 434e 093e 9f32 47bd
00000150: a31a b03d b618 8d3e 048d 49be 783f ab3c
00000160: ecb9 85bd e585 afbd 694b 99bc bac8 303e
00000170: 14b1 983d c7e4 83be 61f7 973c 353d bfbd
00000180: f5b9 faba 1421 4ebd bc38 f6bc a381 1b3c
00000190: 73b7 79bd 6887 4cbc ff65 eabd 22c3 50bd
000001a0: e398 17be efcc 243e 3789 933e 00ad a9bd
000001b0: 32ac f33d 77bd 1b3e c4d5 29bd 6db7 80bc
000001c0: 1dae 00bd dd2a 05bd ef11 b1bc 96a2 83ba
000001d0: b424 153d 5d18 f53b ebc9 413d 138a 8f3a
000001e0: 07e4 a83c c24c 323b e9a6 b13b 6714 823c
000001f0: 0c03 af3c 9082 763d 1d1e 933d 2556 903a
00000200: 2075 163d f39f 58bc 8b17 04bd 2cd2 ccbc
00000210: 2815 6d3d a448 2b3a bf2f 8b3d f438 783a
00000220: 1c4e 913d fdd3 b0bb 5af3 803d d2ef 063b
00000230: 8c40 b13d c3b3 c33b 3866 563c 7747 c73c
00000240: b449 8dbc 55b9 173d e1e1 393c d092 afbb
00000250: a605 5fbc acd0 0bbc f3b6 fa3c df73 83bc
00000260: c194 403c 403c ddbb 5c84 403e 6bc9 a73d
00000270: d421 27bd 4a47 ebbc 9cf1 ad3d 88ae afbd
00000280: 3cfb 383e d0c1 60bd 8217 433c 8b39 303d
00000290: 7ff8 f9bd 4c04 403d a500 b0bc ebcb 6c3d
000002a0: c5fe f63d b351 283c 25e9 65bd 29ec 7fbc
000002b0: 5c63 95bc 03a7 503d da6b 603d 010e 733c
000002c0: 4f04 413e 6ea1 30bc 8d6a 0fbe 3478 723e
000002d0: 60c7 f6ba db05 373d f335 5a3e 6e3b ffbd
000002e0: 90c5 1f3e fed4 b3bd 8dbe ab3d 6c74 003d
000002f0: 4e3a e4bd 2068 153e e60b 0fbc 38b4 ef3c
00000300: 044f ab3d 89c3 473d e230 aa3c 2f9f b73b
00000310: 3703 a53c a0fb dfbb 125d 04bc 228d 103d
00000320: b6db 58bd 1890 8abb 8c09 7d3c 41c8 ce3c
00000330: 1af0 823c 1786 823d 78df 323d cff3 6cbc
00000340: beac ea3c 2fbf 97bb 096d 2b3d b7ad d4bc
00000350: 7b9e bd3c d31e 833b b447 9e3b 9d3f b53c
00000360: 6ec8 c53c 29a1 363c 70c6 763b 5abb 793d
00000370: 9322 b43d c69b 663c fd3a 563d a0ba 04bc
00000380: 67d5 5d3c d2ed d0bc cfde e3bb bdac 903d
00000390: 41da eebc 2099 dc3b 4792 8f3d 1d44 073d
000003a0: efb6 bc3a fd40 0e3c d66e e2bb f800 dd3b
000003b0: 3afe 093c deb7 39bd 3b7f 213d 7ce8 883d
000003c0: de86 383c 6654 cc3b 17cf a13d 49e9 6abd
000003d0: 9b21 503e 61bd 393c 474a 903c 001c d63c
000003e0: 7cef 513d 91e1 3b3d 25c8 403d 9b5e 643c
000003f0: 0815 8c3c fe37 4b3b 1ed7 3b3d ca53 0a3d
-0.0117183635 0.12539244 0.1497639 0.12942626 0.13170183 0.03595918 0.31427976 0.09394255
0.48576742 0.062393256 0.041304294 -0.00258818 -0.040050212 -0.026070224 0.27706733 -0.026556585
0.49725798 0.13980629 -0.047768123 -0.04192379 -0.24871793 -0.17753638 -0.15354896 0.057904977
0.18176511 0.11684674 -0.4412835 -0.41529855 -0.35528624 -0.12520593 0.3068581 0.5860662
0.03766217 0.2407837 -0.15193404 0.14149171 -0.15259853 -0.05797137 0.00481437 0.032929502
0.042736262 0.079625 -0.0014082931 -0.006521102 0.007980375 -0.010956794 -0.0071582184 0.03309745
0.0047578486 0.07818769 -0.0042377496 -0.0033347742 -0.0027326613 0.04174071 0.00850837 0.083685845
0.0016412347 -0.0052788155 0.012957389 -0.005595993 0.0060594315 0.014383523 -0.0042300825 0.008141098
0.014528459 0.011782181 0.009932846 0.020113716 -0.00027409368 0.01882421 0.013317144 0.0021176056
0.017046722 6.860509e-05 0.015639935 0.02042278 -0.018860431 -0.023401631 -0.033329707 -0.038807698
0.04292946 -0.08568219 0.1340876 -0.04863226 0.085988306 0.27557915 -0.196827 0.020904288
-0.065296024 -0.0857046 -0.018712716 0.17264071 0.0745565 -0.2576048 0.018550577 -0.09337846
-0.0019128906 -0.050324515 -0.03005635 0.009491357 -0.060965966 -0.012483455 -0.114452355 -0.050967343
-0.14804415 0.16093801 0.28815624 -0.0828495 0.11898078 0.15208994 -0.04146363 -0.015712464
-0.031416047 -0.03251158 -0.021614997 -0.0010042961 0.036411956 0.007479711 0.047311705 0.0010951184
0.020616544 0.0027206396 0.0054215086 0.01587887 0.021363758 0.060183108 0.07183478 0.0011012001
0.036732793 -0.013221729 -0.032249015 -0.025002562 0.057881504 0.00065339566 0.06796216 0.0009468936
0.07094976 -0.0053963647 0.062964156 0.0020589721 0.086548895 0.005972357 0.013085894 0.02432607
-0.017247058 0.03704198 0.011345358 -0.0053580776 -0.013612187 -0.008533638 0.030604815 -0.016046463
0.011754216 -0.006751567 0.18800491 0.08192714 -0.040803745 -0.028720517 0.08493349 -0.08578211
0.18064588 -0.054872334 0.01190746 0.043023627 -0.122056 0.046879098 -0.021484682 0.05781166
0.12060312 0.010273385 -0.056130547 -0.01562027 -0.018235855 0.050940525 0.054790355 0.014834882
0.188493 -0.010780675 -0.1400549 0.23678666 -0.0018827729 0.04468332 0.21309642 -0.12462507
0.15602708 -0.087808594 0.08385954 0.03136103 -0.11143933 0.14590502 -0.008730864 0.02926074
0.083646804 0.04877046 0.020775262 0.005603693 0.020143135 -0.006835416 -0.00807883 0.035290845
-0.052943908 -0.004228603 0.015444171 0.025241973 0.01598363 0.06373232 0.043670148 -0.014462425
0.028646823 -0.004630945 0.04185203 -0.02596174 0.023146858 0.0040014773 0.004830325 0.02212506
0.024143424 0.011146822 0.00376549 0.060969688 0.08795657 0.014075225 0.05230235 -0.0081011355
0.013539649 -0.025504027 -0.006954051 0.07064197 -0.029156806 0.006732121 0.07010322 0.033023942
0.001439778 0.008682487 -0.0069101853 0.0067445002 0.008422429 -0.045341365 0.039427977 0.06684968
0.011262624 0.006235647 0.079008274 -0.057351384 0.2032532 0.011336655 0.017613543 0.026136398
0.05125378 0.045869414 0.047065873 0.013938571 0.017099872 0.0031008716 0.04585945 0.033771314

encoder.lstm.weight_hh_l0 f4 [200, 50]
00000000: 3354 eb3e 3881 1f3c 04f6 23bc 938a 85bd
00000010: ef10 e03c 5754 57be 50c7 eabb 4e05 99bd
00000020: bd7d d23c 37ef 86bd a455 0dbd 7220 c2bd
00000030: 1318 bc3c 52df ffbc 7400 643d ef21 34bd
00000040: 5f02 243b e2db ef3b 1934 0f3d 85fc 9fbc
00000050: f6ab 10be 01d1 353d 0f28 aebe 8c15 063e
00000060: f80a 943d 8875 ce3d a866 37bd dfba 0abe
00000070: 0e66 2fbe 21b5 39be e8c7 e7bb 8821 0bbd
00000080: 4f69 20bc 3c47 31ba 35a2 2c3e 50f7 41bc
00000090: a211 203e 2268 ec39 fca4 89bd ec0f 4fbe
000000a0: c9fb 57bc 8831 4a3e 3f84 ce3d 70a3 fe3d
000000b0: debd 233e 96b3 50bd 1e1f 85bc 1bba b0be
000000c0: f5c5 cf3d 2428 013c 3a28 c1bc 0d24 0cbd
000000d0: 8a0b e93b 0bc7 dc3c 6f5e 15be e1b2 4fbd
000000e0: 5b7d 1a3c c1a4 f03d 5e35 233e ec96 c03c
000000f0: 2083 46bd 902d 19bc 6068 14be 5229 ee3c
00000100: ed51 80bd 076e 0b3d 3586 f13c b8e5 eebc
00000110: 427d 65bc 7634 ecbc 3975 9abb 20dc 81bc
00000120: fa53 643d 4b96 50bc 1b88 4fbd 0954 82bd
00000130: 7159 563d e744 993d 512a 2ebd 223e 7e3d
00000140: 03d3 6c3d 4cec 893d 1ff4 cb3c 7f61 873d
00000150: f188 8bbd 76d8 febb 73fb 8e3c 8fef 873c
00000160: 935e 513d bb64 183d d079 033d 7833 5c3d
00000170: 2a9f f3bc ba92 0b3d 6b2e 8fbd bc51 103e
00000180: 6ad7 543c a939 bb3c 2165 08bd fe69 49bb
00000190: 1fb1 a3be 9ff8 203e 09ec e23d f4c8 493e
000001a0: 382e 803e a378 b7bd cd8c 2b3e f191 66be
000001b0: 0cfc 5fbc 6500 10be 358b e93c bf3d f83a
000001c0: 7903 8f3e 0f20 b7bd 3176 10bd e3b2 a23d
000001d0: 585e 0a3c 8277 89bd eed0 c5bd 5077 5f3e
000001e0: 727d d9be 19b1 913c 50f2 143e 3afd cf3d
000001f0: b627 293e 4eae 963b 8bb8 f93c 89f3 9bbd
00000200: b99c 703e fdb8 29bd 4b1c 4fbe 2d26 d4be
00000210: 9fbf d4bd 7b63 b63d eee1 753b 68bc b13d
00000220: be25 9fbe 9dde 163d 3a46 57be 6dbd 91bd
00000230: a5e5 d8bd 1b9b 03be 7780 e13d edda c7be
00000240: a4a6 eabd 1004 52be 2bb1 f5bd 8440 3f3e
00000250: 0444 d73d 972b 873d 3707 d4be c09f c23d
00000260: e981 51be b2d0 8d3b 4914 153d 4b7d ad3d
00000270: 89f3 31bd 9180 4dbd e082 9cbc dd7f 0ebe
00000280: 1938 393d 49fe ec3d 8f32 313d 98c8 6dbe
00000290: 8bfd 843d 76ba 82bd 16dc 38bd 1b4f f2bc
000002a0: f0b5 23be 30a3 e9bc 5fb7 f8bd afeb 73bd
000002b0: f4a1 0b3e 90ee bbbe 1f56 3f3d 7185 f63d
000002c0: 327e a73e b05b 5a3e 0deb a83e 7675 783d
000002d0: df9a 513c 0d91 783d 38a3 803d d30c 0dbd
000002e0: df15 9abe cc5c 343d 03d1 74be 9940 7d3e
000002f0: 5acf 3a3d 7c2a 553c a5d5 f5bd 9425 22bd
00000300: df48 8f3d 1720 463d 1398 bcbd 6762 c2bd
00000310: 9674 083e bfe2 473e 83ef 79bc 36af 32bd
00000320: d3f0 9cbe bef8 5d3c 6348 2d3d 2ad0 523c
00000330: 325f b6be e8dd 053d c248 823e 7a3b 953e
00000340: 0da4 363e ad00 163e 9d39 febd 1858 a1bd
00000350: a4d4 0abe b4e9 18be 8106 30bd 7749 0f3e
00000360: 64a6 843d 1694 8bbb ea78 aabd e0b9 f7bc
00000370: 83a9 be3d 7a92 44be 19ba 2c3e 6c95 79be
00000380: 4862 f1bb ce1f c0bd 8363 ae3d 79bf 5c3e
00000390: 0756 923d f542 553e 8292 a53d b8cd 623e
000003a0: 2e16 7abb a495 fabb 86fb 69be 1fac 0a3d
000003b0: 4e26 063d e216 763d c77b 853d 27ed 493e
000003c0: b82b 32bd fbc6 2c3c e9f6 52be 0a0e dd3d
000003d0: 5b15 71be 7432 503e df6a 6fbd 7258 563e
000003e0: 046a 48be 3b10 f23d 195f a3bd 24fc c93d
000003f0: 759a f33d ed53 2a3e 8fca b1bc e809 e73d
0.45962676 0.009735398 -0.010007385 -0.065205716 0.027351825 -0.21028267 -0.007164873 -0.07471715
0.025694722 -0.06588595 -0.0345055 -0.09478845 0.022960698 -0.031234417 0.055664495 -0.043977674
0.0025025827 0.0073199132 0.034961794 -0.01952959 -0.14128098 0.044388775 -0.34014937 0.13094157
0.072286546 0.10081011 -0.044775635 -0.13547848 -0.17128775 -0.18135501 -0.007073391 -0.033967525
-0.0097907325 -0.0006762629 0.16858752 -0.011838749 0.15631726 0.00045091013 -0.067209214 -0.20220917
-0.013182589 0.19745457 0.10083818 0.12433517 0.15990397 -0.050952516 -0.01625019 -0.34516987
0.10145179 0.007883105 -0.023578752 -0.03421407 0.0071119713 0.02695038 -0.14586805 -0.0507077
0.009429301 0.11750174 0.15938327 0.023509465 -0.048464894 -0.009349242 -0.14492941 0.029072437
-0.06265626 0.034040477 0.02948294 -0.029162273 -0.014006915 -0.02883361 -0.004713681 -0.015852034
0.05574415 -0.012731145 -0.05066691 -0.06363685 0.05233139 0.07483845 -0.042520825 0.062070973
0.057818424 0.06734523 0.02489668 0.06610393 -0.06813229 -0.007777269 0.017453885 0.016593723
0.051115584 0.03720544 0.03209859 0.053760022 -0.029738981 0.034075476 -0.069912754 0.14093679
0.012990812 0.022854643 -0.03329957 -0.0030733342 -0.3197107 0.15719841 0.110801764 0.19705564
0.25035262 -0.089585565 0.1675293 -0.2251661 -0.0136709325 -0.1406265 0.028508762 0.00189393
0.27932337 -0.089416616 -0.035268966 0.07944276 0.008445345 -0.067122474 -0.09658991 0.21822858
-0.4247852 0.017784642 0.1454556 0.10155721 0.16519055 0.0045984155 0.030483505 -0.0761481
0.23497285 -0.041436184 -0.20225637 -0.41435376 -0.10388111 0.08905693 0.0037518698 0.08678514
-0.31083483 0.036833394 -0.21022883 -0.07116208 -0.10590676 -0.12852137 0.11010831 -0.39034215
-0.114575654 -0.20509362 -0.11996683 0.18676955 0.1051102 0.06600111 -0.41411754 0.09503126
-0.20459713 0.004327857 0.0363963 0.08471163 -0.043445144 -0.05017144 -0.019105375 -0.13915963
0.045219515 0.115719385 0.043261107 -0.23221052 0.06493672 -0.06383221 -0.045131765 -0.029578736
-0.15987372 -0.028520197 -0.1214435 -0.059550937 0.13635999 -0.36705446 0.04671299 0.12037171
0.32713467 0.21324039 0.3299183 0.060658894 0.012793272 0.060685206 0.062811315 -0.03443606
-0.3009481 0.04403381 -0.23907857 0.24731673 0.045607902 0.013010617 -0.1200364 -0.03958662
0.06996321 0.048370447 -0.09208693 -0.09491425 0.13325724 0.1952009 -0.015254858 -0.043624125
-0.30652484 0.013548074 0.04230536 0.012867013 -0.35619503 0.03268233 0.25446135 0.2914694
0.17836018 0.14648695 -0.124133326 -0.07878131 -0.13557678 -0.149329 -0.042974953 0.13992868
0.06477049 -0.0042595966 -0.08323844 -0.03024 0.093096755 -0.19196501 0.16867866 -0.24373406
-0.0073664524 -0.09381066 0.08515074 0.21557416 0.07145315 0.20826323 0.08084585 0.22148788
-0.0038160193 -0.007647233 -0.22849855 0.033855554 0.032751374 0.060080417 0.06517749 0.19719373
-0.043498725 0.0105454875 -0.20602001 0.10793693 -0.23543303 0.20331746 -0.05845153 0.20932177
-0.19571692 0.11819502 -0.07977123 0.09862545 0.11894695 0.16633578 -0.021703033 0.11281186

encoder.lstm.bias_ih_l0 f4 [200]
00000000: bd9b 093f 93ef 563f 7591 783e bf6c 6e3e
00000010: 86fb 1d3f 09b3 643f 0e82 a53e 3ccf 873e
00000020: 201d 663f e814 063f f2eb cd3e 5060 243f
00000030: 3b09 7f3f 15f1 e23d 335e 1c3e e912 da3e
00000040: f5ac 8d3e 46a8 703f 7d31 443e 993e ea3e
00000050: abe4 b23e 573d 563e 8ebe 013f c151 1c3e
00000060: 2ffc 6f3e 5f03 e43e 2609 47bd bbbb a13e
00000070: da69 533f 7b30 133d 4108 c03e 937e ce3e
00000080: f593 cb3d 06cd b93e e4e4 933e 5ae1 a03e
00000090: ff95 683f 508d 503e 7374 9e3d 693e 813e
000000a0: a6c1 0b3e b5f4 d03c ed2d d33e 7d61 2b3f
000000b0: fdda 433b 1efa 133f f6fe 6e3f 3bfe 463f
000000c0: b787 303e 396e 233f a3bd a4bf f12b 4dbf
000000d0: 8dd4 f0be b1e7 dbbe 38a4 7abf 92d3 22bf
000000e0: f392 ecbe a4d3 84bf 7e08 c8be 0c71 5cbf
000000f0: b444 96bf 099f d3bf 3dae d3be e626 04bf
00000100: a1b5 78bf d016 6ebf 148a ccbe 7eb1 82bf
00000110: 6dd6 87be afb4 5ebf 3785 2ebf 8dab c5be
00000120: 7eef 9fbf 425e efbe d332 15bf 2387 8bbe
00000130: 1ab7 52bf 4fc6 90bf f658 29bf 9ee1 49bf
00000140: 3553 80bf fac6 8cbe 5e75 7dbe 4bd8 abbf
00000150: 90d1 2cbf 05ad 4bbf c085 0abf 30b5 e2be
00000160: 9342 81bf 83e2 9ebe 9c69 c9be d1ca 5bbf
00000170: f83c aebe ed43 fbbe 1332 72bf 5fe7 14bf
00000180: 86da 9dbf e251 d6bf 2d57 8fbe b6bb 9dbe
00000190: c76b 9cbf 697d 953e 4622 b0be e28d a43e
000001a0: d155 323f 6463 363f d42c f2bd 2531 dabe
000001b0: 2462 f2be 613a 3dbe dd6b 283c 67c6 b2bd
000001c0: 1ce5 e53e 8ecd 993d 9157 0b3f 3035 c5bd
000001d0: 52eb 3abe 66ff 11be 7fbc 3c3e e9b5 d5bd
000001e0: 2e15 40be 58fd c53e 9dcc af3f cf21 6abe
000001f0: 0baf 923e 6365 843f aea9 213e d6eb adbe
00000200: 6330 6e3f bc69 8ebe 87e7 84be 465c d4be
00000210: 39d3 ea3c d17f 8e3d 9213 eabe 8c05 923e
00000220: bb32 39bf ed26 b03d bd73 07bf 1cd9 4dbe
00000230: b10c 5abe 2dbf bdbd dbf2 2a3f 8f15 dabe
00000240: 7b63 40be b8a7 8dbf 0d64 a0be b7cb 8f3f
00000250: be45 e43e 8ee7 26bf 42e7 0b3f 1af5 083f
00000260: 2557 a63e 6442 5dbe cc85 0b3f 4b60 f53e
00000270: d0d2 0abe e33f e33e 64b4 1e3f 3cd7 883e
00000280: 271a b13e d7cd cd3e d388 0e3f 7b33 c2bd
00000290: 7024 5c3e bc3c b63e c982 25bc 709f 013f
000002a0: abdb 5a3c 24bf f83e 1678 5f3e 5c4a e53d
000002b0: e303 a63e a15d 0bbf 9949 033e 2206 123f
000002c0: 490d 413a 1ac8 243d 19ff 133f d465 0b3e
000002d0: 1108 c33e b38f aa3e 5173 02be 650c 773e
000002e0: 46f1 25bf 006f 273d 1619 083f aefd f5bd
000002f0: 09a4 083e 0642 003e 2d80 d33c 2f77 adbe
00000300: 7466 eb3e ac87 bd3e 6253 203e af8f 163f
00000310: 5954 183f da63 3e3f 0ab9 2f3e 62dd cd3e
0.5375326 0.8395931 0.24274237 0.23283671 0.6171192 0.89335686 0.32325786 0.26525295
0.8988819 0.5237565 0.40219074 0.6420946 0.9962346 0.11081139 0.15270309 0.42592552
0.27671018 0.94006765 0.19159503 0.45750883 0.34940085 0.20921837 0.5068139 0.15265562
0.23436044 0.44533822 -0.04859271 0.3158854 0.8258339 0.035934906 0.37506297 0.40330943
0.0994033 0.36289233 0.28885567 0.3142193 0.90853876 0.20366406 0.07737055 0.25242928
0.1364809 0.02550731 0.41245976 0.6694563 0.0029885166 0.57803524 0.9335779 0.77731675
0.17239271 0.6384006 -1.2870373 -0.80145174 -0.47037163 -0.42950204 -0.9790683 -0.6360408
-0.46205863 -1.0377088 -0.3906898 -0.86109996 -1.1739717 -1.6532909 -0.4134387 -0.51621854
-0.97152144 -0.9300356 -0.39949095 -1.0210416 -0.2653078 -0.8699445 -0.6817202 -0.38607445
-1.2494962 -0.467516 -0.58280677 -0.2725154 -0.8231064 -1.1310519 -0.6615137 -0.7885989
-1.0025393 -0.27495557 -0.24751803 -1.3425382 -0.67507267 -0.7956088 -0.54110336 -0.4427886
-1.0098442 -0.3103219 -0.39338386 -0.8585635 -0.3403089 -0.4907526 -0.9460766 -0.58165544
-1.2332313 -1.6743739 -0.27996197 -0.30807275 -1.2220391 0.29197243 -0.3440115 0.32139498
0.69662195 0.7124541 -0.118249565 -0.4261562 -0.473405 -0.18479301 0.010279623 -0.087292485
0.4490136 0.075099096 0.5443049 -0.09629285 -0.1825383 -0.14257583 0.1843128 -0.10435087
-0.1875808 0.38669848 1.3734318 -0.2286446 0.28649172 1.0343441 0.15787384 -0.3396899
0.9304258 -0.27815044 -0.2595789 -0.4147665 0.028665172 0.06957973 -0.45718056 0.28519857
-0.72343034 0.086011745 -0.5291098 -0.20102352 -0.21293904 -0.092649795 0.6677682 -0.42594573
-0.18787949 -1.1066809 -0.31326333 1.1234044 0.4458446 -0.65197074 0.54649746 0.53498995
0.3248836 -0.21607357 0.5450103 0.47925028 -0.13556981 0.4438468 0.61994004 0.2672671
0.34590265 0.40196106 0.5567753 -0.09482475 0.21498275 0.35593212 -0.010101982 0.5063391
0.013358037 0.4858333 0.21823153 0.111958236 0.3242484 -0.5443974 0.12821044 0.5704061
0.00073643454 0.040229894 0.57811123 0.13613063 0.38092092 0.3331276 -0.12739302 0.24125822
-0.6482128 0.040877342 0.5316328 -0.12011276 0.13343824 0.12525186 0.025817955 -0.33879992
0.45976603 0.37017572 0.15656808 0.58812994 0.59503704 0.7437111 0.1716043 0.40207964

encoder.lstm.bias_hh_l0 f4 [200]
00000000: f999 093f 86f0 563f 8dc9 783e 7699 9a3e
00000010: 431d 0c3f 7bb6 643f 2a73 a53e db53 b83e
00000020: 1532 663f ef98 0b3f 71b6 c73e 02a0 263f
00000030: 1e84 613f af25 0f3e 08af 443e b60c dd3e
00000040: 9deb 8d3e bcb5 713f 4516 443e 5d7a d93e
00000050: d23f c63e 1f4d 1b3e 8ebe 013f 1de5 2b3e
00000060: ca67 973e 5f49 e23e e1ef 123d a4f6 a43e
00000070: 38c5 5b3f 0f3c a13d 3ce2 e63e 6e9e dc3e
00000080: f593 cb3d 9678 a43e 07fa 503e dc1e 853e
00000090: cb3d 5a3f 8dbf 5b3e cebd d43d 772f 333e
000000a0: 536e 3e3e c969 d13c b275 c23e 7d61 2b3f
000000b0: 94f7 3d3b 8785 1d3f abe3 6e3f 8c04 473f
000000c0: ad67 473e 263c 2c3f 9d85 a8bf f12b 4dbf
000000d0: fd26 e8be 3c66 dcbe 8c78 7dbf 8fe0 22bf
000000e0: 80e2 ecbe 11c0 81bf 266a babe 8176 5dbf
000000f0: e573 96bf ff4f d4bf 36d2 e8be d2d4 f8be
00000100: 235e 70bf 0bf1 73bf fd65 cdbe 6eb1 82bf
00000110: bdda 87be 4b90 5fbf 3b43 24bf 3d22 bfbe
00000120: 3d4b afbf 7cc1 01bf 84b1 13bf 0881 a6be
00000130: 46d6 66bf c5e3 97bf 6269 2ebf ab22 4dbf
00000140: d785 6ebf f644 92be 5875 7dbe f45e aabf
00000150: 7191 39bf 7047 47bf 3ae6 08bf f32a e2be
00000160: f2fd 80bf 09b8 9dbe 9d1a d4be c50b 5cbf
00000170: a0b2 aebe 5057 fbbe 3532 72bf ce90 19bf
00000180: 12da 9dbf 2a6f d6bf 3fd0 a1be cf94 9ebe
00000190: f9d8 8abf a07c 3d3e 99df ddbe c47f 603e
000001a0: 917a 343f 5a84 533f b3cf 35bc 7a4f d9be
000001b0: 2462 f2be cbfc 2ebe 8a68 283c 8ae9 aabd
000001c0: 1ce5 e53e a4df 5b3d 22f3 0b3f 3ade e4bd
000001d0: cb7d a1bd 13df 05be 96ff 883e ada6 c1bd
000001e0: c1d1 41be 16eb eb3e 48ae bf3f 6de0 2ebe
000001f0: 021b 973e a5cd 693f 7f4e 023e 00b2 abbe
00000200: f694 423f 5dc5 a7be a853 78be 465c d4be
00000210: cdb3 9cbd ebfe 693d 5576 eebe 4200 543e
00000220: 071f 52bf 2ca5 753e 49bf 28bf 17cf 80be
00000230: d54e f5bd d2a0 d0bd e4eb 333f fbb1 06bf
00000240: 790f a7bd b92e 8ebf 9f7a 3ebe b84c 9c3f
00000250: 15d1 033f 6fce fdbe 42e7 0b3f 1af5 083f
00000260: 2fb9 a53e 0142 5dbe cc85 0b3f 4b60 f53e
00000270: d0d2 0abe e33f e33e 64b4 1e3f e7ea 803e
00000280: 9b65 923e d7cd cd3e d388 0e3f 7d7f c4bd
00000290: d505 6a3e be94 973e c982 25bc 709f 013f
000002a0: a9db 5a3c 59a0 d93e 0b98 643e 071c 8f3d
000002b0: 2b04 a63e 31fa 0dbf 4760 293e b78e 173f
000002c0: aa47 243a 0de2 493d 19ff 133f 1df6 0b3e
000002d0: 3e37 c33e 8575 c73e 5173 02be 360f 773e
000002e0: e1fd 25bf c6ae 413d 1619 083f c587 f5bd
000002f0: 68a7 373e 5d8b fa3d 2e80 d33c 2ac1 b1be
00000300: 40ba eb3e ac87 bd3e 5e53 203e af8f 163f
00000310: 5954 183f da63 3e3f 1c35 473e 33d6 cd3e
0.5375057 0.8396076 0.24295636 0.30195206 0.5473215 0.89340943 0.32314426 0.36001477
0.8992017 0.54530233 0.3900638 0.650879 0.8809222 0.13979219 0.19207394 0.4317376
0.2771882 0.9441793 0.1914912 0.42476168 0.38720566 0.15166138 0.5068139 0.16786619
0.29571372 0.44196603 0.035873298 0.32219422 0.85847807 0.078727834 0.45094478 0.43089622
0.0994033 0.3212325 0.20407878 0.26000106 0.8525054 0.2145979 0.10387765 0.17498575
0.18596773 0.025563138 0.3798042 0.6694563 0.002898668 0.6153187 0.93316144 0.77741313
0.19473143 0.6727928 -1.3165776 -0.80145174 -0.45342246 -0.4304675 -0.99012065 -0.636239
-0.46266556 -1.0136739 -0.3640911 -0.8650895 -1.1754118 -1.6586913 -0.45472878 -0.4859987
-0.9389364 -0.9528968 -0.40116873 -1.0210397 -0.26534072 -0.8732955 -0.64165086 -0.3733081
-1.3694836 -0.5068586 -0.5769274 -0.32520318 -0.90170705 -1.1866385 -0.6812955 -0.80131024
-0.93172973 -0.28568238 -0.24751794 -1.3310227 -0.7248755 -0.7784338 -0.534763 -0.44173393
-1.0077498 -0.3080447 -0.41426554 -0.8595546 -0.34120655 -0.49090052 -0.9460786 -0.5998658
-1.2332175 -1.6752675 -0.31604192 -0.30972907 -1.0847465 0.18504572 -0.43334654 0.21923739
0.7049952 0.8262383 -0.011096883 -0.42443448 -0.473405 -0.1708862 0.01027883 -0.08345325
0.4490136 0.053680077 0.54667866 -0.11175199 -0.07885321 -0.13073377 0.26757497 -0.09455619
-0.18927671 0.46077794 1.4975061 -0.17077799 0.29512793 0.91329414 0.12725256 -0.3353424
0.76008546 -0.32767764 -0.24250662 -0.4147665 -0.07651482 0.057127874 -0.46574655 0.20703223
-0.82078594 0.2398879 -0.6591688 -0.25157997 -0.11977927 -0.10186924 0.70281816 -0.52615327
-0.08157248 -1.1108009 -0.18601464 1.2210913 0.5149091 -0.4957156 0.54649746 0.53498995
0.32367846 -0.2160721 0.5450103 0.47925028 -0.13556981 0.4438468 0.61994004 0.25179216
0.28593144 0.40196106 0.5567753 -0.09594629 0.22853787 0.2960567 -0.010101982 0.5063391
0.013358035 0.42505148 0.22323625 0.06987768 0.32425055 -0.55459887 0.16540633 0.5920214
0.00062667823 0.049287844 0.57811123 0.13668104 0.38128084 0.38956848 -0.12739302 0.24126896
-0.64840513 0.047285818 0.5316328 -0.119887866 0.17934954 0.12233613 0.025817957 -0.34717685
0.46040535 0.37017572 0.15656802 0.58812994 0.59503704 0.7437111 0.19453853 0.40202484

encoder.lstm.weight_ih_l1 f4 [200, 50]
00000000: 6ac9 213e 20cf b9bc 85fd 79bb b134 623d
00000010: f909 b73c 7847 003b 6f29 efbc 4ce3 95bd
00000020: 7553 92bc cb5c 9b3b 9efb 70bc d4fc 323d
00000030: 3ee1 553d 0576 62be 08bc 10bd 27d4 843d
00000040: abbf c0bc 637c 283c 184f 15bd bd45 0abd
00000050: 8a23 8f3c 6b25 38bc 1131 29bd 1c7e f8bd
00000060: 2f4d 23bd 952b fc3c ff87 293d 5497 80bd
00000070: ba5d 5c3e dd85 febc cb9a 6e3d 709e 3abd
00000080: 710e 30bb 41ca 5cbd d2c0 8bbe 9239 123d
00000090: 10f5 30bd 14f6 803d eefb 963d ef02 22bd
000000a0: 99a9 a8bd ad4c 653d de84 76bc 1949 66bd
000000b0: 38b7 4b3d c876 1cbb b751 bebc adf7 d63d
000000c0: 4bb2 b6bc 5c14 4a3d d694 9b3d 6652 bc3c
000000d0: 9002 a53d b657 003e 5e77 a13d 8b7e 12bd
000000e0: ab79 8b3d 331e abbd 6770 92bc aa1c 0f39
000000f0: 315b 3c3c 87b8 15bc 46dc 343d ee42 acbe
00000100: be84 f83d 599f 82bc c3eb 2b3d 3cc1 713d
00000110: f6a6 823c 24b4 153c e5a9 b3bd 78d2 263d
00000120: d7c5 a4bd 3e96 a8bd f6d8 b43c 3485 cb3d
00000130: 70fb 4e3d 1f08 e7bc b8cb 173e 00f2 9bbd
00000140: 794c 9bbc b538 07be 502d 1cbd cdca 793c
00000150: 0945 e7bc 35e7 69bc c10f 0ebe 7e1b bbbc
00000160: f4c3 62bd 057e 26bd 816e 09be d345 65ba
00000170: dbf0 9c3d 4dee e63c ae99 d13d af4d 96bd
00000180: 14fa 8d3c 1b43 a1bd 618b 0a3d 0ecb f7bd
00000190: 57d1 30be 9f53 e13d 773f 4abe b1d1 333d
000001a0: d086 08bd 9044 203d 8cf2 55bb 3c31 1dbc
000001b0: 47d1 a0bc 617f 13bc f679 5dbd c094 c33b
000001c0: 3a83 ce3d a2cb 78be 31d1 c2bc 4a14 91be
000001d0: ffc9 fb3d df6e 83bc cdfb 78bd 566e 073e
000001e0: 6147 63bd 95f4 a2bc 8cb4 b2bc 3ce8 8cbe
000001f0: ff22 353d a8eb 6a3c 62f4 02bd 5343 853d
00000200: 9c31 a03e 68e6 e1bd 43c8 a33d a1eb 6c3d
00000210: 4b6e e53c b868 b93b 78cd 0bbe 8992 f73c
00000220: b056 55be 218f 713c 5688 493d 84a5 dbbc
00000230: 8a9a 92bd 1263 abbd 812e 1dbe ed8a af3c
00000240: 38f1 17bd d92a ebbc db57 c43c ce56 803d
00000250: fe06 f03c f6ea eabd 1b3e 28be c039 4e3d
00000260: 3cbc 53bd 9ef4 173e 1f2a 10bb 731b 59bc
00000270: 05ee 863d f860 21bd 9181 04bd 8a6c 973c
00000280: acfe 143d d365 4b3d 1e0e c03d 998d bdbe
00000290: f663 94bb 5d3e 4fbb 55a6 473d 937c c03d
000002a0: 4931 993b a3c1 ccbd c4dc fd3b 4a23 693d
000002b0: c327 a63d 3895 9abe 6bb8 38bc 9b0a 853d
000002c0: d7b2 543e 0220 be3d 9cc6 e23e 9c21 bfbc
000002d0: 48b2 a0bc fe6d e6bd e63b 9bbc 8f25 4d3b
000002e0: caa3 8fbe f9ee ebbc 7c8b 42be e267 78bc
000002f0: 9034 463c 32b3 8abd 7fd8 14be 9c38 a13c
00000300: 9101 9d3b d503 c439 b9ec 7abd b706 1a3c
00000310: e665 eebc 22d2 163e 3d60 afbc 9cc9 a9bd
00000320: 12c1 f8bd 0189 ae3d 3777 14be da48 db3d
00000330: a9c4 8abc 8deb 423d c1f7 b9bd 7f26 ebbc
00000340: 9c34 c0bd 6c73 40bd c5b8 5fbd 5d6d 3f3e
00000350: 6cdf 86bc 587b 3bbe cafe 60bc f6f1 48bd
00000360: e111 12bd f1c8 a83c 1ce6 7ebd 587c d23c
00000370: 4ac8 ab3c a40c 88bb f3ed 193d 0710 49be
00000380: 4468 74bd 6cca 523d 8c03 6a3e 2658 9a3d
00000390: 7d3f 7b3e 67b0 923d d64b 2b3e 346b 073d
000003a0: be8c 0c3d b755 00bd e5bc 99bd e2b9 32bd
000003b0: ff47 18be 483e b53c 377b 953b d760 2b3d
000003c0: bb92 09be d2c0 903d c721 cf3d e308 33bd
000003d0: 2f16 0d3d b580 e1bc 1763 5ebd 8eaf 6a3d
000003e0: 7a1c a9bd 5956 82bc c47c b5bd b41a b8ba
000003f0: 62d4 0abe 95f5 073d a1f1 d63d d90d 913d
0.1579949 -0.022681773 -0.0038145494 0.05522603 0.022343623 0.0019573849 -0.029194562 -0.07318744
-0.017862061 0.0047412864 -0.014708428 0.043698147 0.05221676 -0.22115333 -0.03533557 0.06485777
-0.023528894 0.010283562 -0.036452383 -0.033757914 0.017473001 -0.01123939 -0.04130656 -0.121334285
-0.03986853 0.0307825 0.04138946 -0.062788635 0.21520129 -0.03106969 0.05825309 -0.045561254
-0.0026864076 -0.05390382 -0.27295548 0.035699435 -0.04320246 0.06296936 0.073722705 -0.03955358
-0.08235473 0.055981327 -0.015046326 -0.056222055 0.049735278 -0.002387451 -0.023232324 0.10496459
-0.022301814 0.049335822 0.075967476 0.02298851 0.080571294 0.12533459 0.078840956 -0.035765212
0.06810316 -0.083553694 -0.017875863 0.00013648221 0.011496351 -0.009138233 0.04415538 -0.33644813
0.121346936 -0.015945124 0.041972887 0.059022173 0.015948754 0.009137187 -0.08772639 0.040728062
-0.080455475 -0.082317814 0.022076111 0.09937516 0.05053276 -0.028202115 0.14823806 -0.07614517
-0.018957363 -0.13205226 -0.03812915 0.015246105 -0.02823116 -0.014276315 -0.13873197 -0.022840258
-0.055362657 -0.040647525 -0.1342106 -0.00087460614 0.07663127 0.028189803 0.1023439 -0.07339036
0.01733116 -0.078741275 0.03382433 -0.120992765 -0.17267357 0.110022776 -0.19750772 0.04390115
-0.033331692 0.039127886 -0.003264579 -0.009594258 -0.019631041 -0.0090025375 -0.05407139 0.00596866
0.10083623 -0.2429643 -0.02378139 -0.28335792 0.12294387 -0.016044078 -0.06078701 0.13225684
-0.055487994 -0.019892016 -0.021814607 -0.2752093 0.044222828 0.014338411 -0.031971343 0.06506982
0.3128785 -0.11030275 0.07997181 0.0578419 0.028006693 0.0056582354 -0.13652599 0.03022124
-0.2083385 0.014743597 0.049202286 -0.026812322 -0.07158382 -0.083685055 -0.15349771 0.02142855
-0.03709528 -0.028706955 0.023967674 0.06266557 0.02930021 -0.114705965 -0.16429941 0.050348043
-0.051693186 0.14839408 -0.0021997762 -0.013251173 0.065883674 -0.039399117 -0.032350127 0.018484373
0.036375687 0.049657654 0.09377693 -0.37022093 -0.004528518 -0.0031622865 0.04874261 0.09398761
0.0046750647 -0.09997871 0.0077472646 0.05691842 0.08113053 -0.3019197 -0.011274437 0.064961635
0.20771347 0.09283449 0.44292152 -0.023331456 -0.019616261 -0.11251448 -0.01894946 0.0031302904
-0.2805465 -0.028800474 -0.18998522 -0.015161486 0.012097493 -0.0677246 -0.14535712 0.019680314
0.0047914465 0.00037386888 -0.061260913 0.009401015 -0.029101323 0.14728597 -0.021408195 -0.08290407
-0.121462 0.08522225 -0.14498602 0.10707255 -0.016939478 0.04758792 -0.090804584 -0.02870488
-0.093850344 -0.046985075 -0.05461957 0.18694063 -0.016463958 -0.1830877 -0.013732621 -0.049058877
-0.035661582 0.020603629 -0.06223117 0.025694057 0.020969529 -0.0041518975 0.03758044 -0.1963502
-0.059669748 0.051462576 0.22852916 0.07536344 0.24535938 0.07162552 0.16728148 0.03306122
0.03431391 -0.031331744 -0.07506732 -0.043634303 -0.14871214 0.022124425 0.0045618075 0.0418404
-0.1343488 0.070680276 0.101138644 -0.043709647 0.034444984 -0.027527193 -0.05429372 0.05729633
-0.082573846 -0.015910314 -0.08861688 -0.0014046044 -0.1355758 0.03319319 0.10495306 0.07082719

encoder.lstm.weight_hh_l1 f4 [200, 50]
00000000: 5d21 633d 3478 e1bc 9ab1 04bd d465 203c
00000010: c515 bd3c eae7 cebd 4c5f 3e3d 17a8 cdbc
00000020: 2a48 143b 16b4 6abd ef00 c73c 4563 a63d
00000030: 4dd9 e53b cae1 68ba f12c 30be 1fd4 4dbd
00000040: 9687 26be f948 11bd 5c4f fb3d 72df 713d
00000050: f2b5 043e 768a 543d 7453 b4bd 2ac2 8a3b
00000060: 0290 983d caea 94bd 76d6 ccbc dc2e 5dbd
00000070: 1f85 18bd ed33 b2bd 3873 703d 5def 943d
00000080: 57d3 edbc 12f0 063e b2a4 5b3d a97e 07ba
00000090: 611a aa3c 218b 8dbd 8305 9cbd 7f5a babc
000000a0: bc80 023e 3eff e33d fdd0 813d 5f41 193d
000000b0: f515 033d edd5 b93d f436 90bd c411 22be
000000c0: d951 99bd fe3a e7bd 5905 50bb 13f6 973d
000000d0: 8a7b 473d 6047 f83c 24ab 3dbd 77ba 343c
000000e0: 1a53 ab3c f88c 2f3c 0c60 d4bc 912f 4b3c
000000f0: 84ee 4b3d f736 f8bc 71a0 ccbc 039b 803c
00000100: 4438 8fbd 7341 2f3d c3d3 85be 5c53 d8bc
00000110: bfcf 113e 7a94 adbb 6d7a 3cbd 7b51 e13c
00000120: 9797 d3bd 2bfd 863c 15a6 4abd be77 94bd
00000130: 6f68 8dbc 468b 99bd d18c 133d fd1a 653d
00000140: d5eb 603c 19a3 0f3d 1dc1 403c 5d37 8cbd
00000150: 2655 793d 3438 8bbc 31ae 28bd 2605 d63c
00000160: 0d78 e23c ce47 1ebc 54ca a2bd ff8d 083e
00000170: 754f a0bc 092b fabb 647e ee3c 9fa4 763d
00000180: d309 7ebd 635e 4dbd c4d6 90bc 7c4b ab3d
00000190: 7e77 b63d 30fe aa3d e83e 273d 4cc7 af3d
000001a0: 9e62 113e d540 2ebe da72 383d d794 373b
000001b0: 2f4a 753d a147 2d3d dd61 1b3d 03b4 c93c
000001c0: 6eb6 8d3d 1cac 883c 93dd 22be baef a13c
000001d0: 20d2 8ebe ec61 173c 19fd 17bd 0659 d53d
000001e0: cfbb fe3d 4861 013d ac4c ffbc 821a 4d3d
000001f0: 3aeb df3c e896 cfbd c2cf 22bb 146c a7bd
00000200: b5b3 ed3c 5023 f8bc 34cc c6bb 4546 84bc
00000210: 1680 6c3d 8cc5 943d 4308 a83d a5fd 39bd
00000220: a4e0 1e3d 7b16 2ebd e27d 673b 7d2b e4bd
00000230: 3fb1 4e3e eb08 73bd 42bb 343d 024b 373d
00000240: 2c53 b43d 8238 4b3d 20c1 eabd c08e 96bd
00000250: 8288 8cbd dbfd 40bd b8ee 21bb e390 dd3b
00000260: c25b 9dbd dd13 963c 663c 8e3d d8c4 abbd
00000270: d176 adb9 96a1 26bd d55e b13b 1806 f8bc
00000280: f0e9 72bd 46fa c0bc e6c9 11bd 9ebc 60bb
00000290: 9824 e9bd 13b8 42bd 2344 83be 0a9b 57bc
000002a0: 206c c13d 1699 11bd 5008 213e b000 503d
000002b0: f971 b3bd e69b 91bc d43d 213e e134 1ebd
000002c0: 083f cebb d979 b8bd 6fae a13d a9a1 0fbc
000002d0: 9c73 3d3d 2f5a b8bd 3e10 55bd 6463 aa3c
000002e0: 3346 913d 1b9b 283e ac75 303d 3a79 a5bd
000002f0: ab02 a7bc e740 4bbd c755 4d3d 5c57 163e
00000300: 6131 d73d 33d0 463c 5fe0 233d 5203 783d
00000310: 7b47 2eba e8ca 2abd 73cc 80bd ba89 523c
00000320: c129 413d 6b2b b2bc e1f5 9dbb 12b3 d3bc
00000330: e5f2 8e3c 6000 6abd 1866 393d e679 24bc
00000340: 4753 d23d 661d 68bd d1b9 86bd aa4e 4f3d
00000350: 1364 5a3d d974 5f3d 520a 41be a353 0fbe
00000360: af37 46bd c8ef 71bc e564 8b3c 0c07 af3d
00000370: ac1f 063e 1590 d63d e92a b9bd 7dd8 22bb
00000380: acb6 1c3e b1fd 3ebd 8d93 2bbe b2ed 27bd
00000390: f221 00bd 2943 523d 0165 9b3c 28e3 aebc
000003a0: d503 ef3b 8f4d 9e3d 9c0f d53d 0607 083d
000003b0: 55f6 943c 9a28 bbbd 0c4f 41bc 5e94 463e
000003c0: ef82 413e edeb 10be 81be 583d c033 893d
000003d0: a2b3 043e d902 3c3d e8a7 5e3c 38f4 cdbd
000003e0: 8c7b 803b 8501 603c 57ee 833d bf92 58bd
000003f0: d9ad d33d cf66 813d 1921 9dbd 587c 013e
0.05545174 -0.027523138 -0.032395937 0.009789903 0.02308167 -0.10102828 0.0464776 -0.025104566
0.002262602 -0.05730065 0.024292437 0.08124403 0.0070144297 -0.0008883743 -0.17204644 -0.050251123
-0.1626266 -0.035469983 0.12270996 0.059050985 0.12960032 0.05188986 -0.0880498 0.004234572
0.07449342 -0.07271345 -0.025004607 -0.053999767 -0.03723633 -0.0870131 0.05870363 0.072722174
-0.029031439 0.13177517 0.053623863 -0.0005168715 0.020764532 -0.06911302 -0.07618239 -0.02274823
0.12744421 0.11132668 0.063386895 0.03741586 0.03200336 0.09074006 -0.070417315 -0.1582709
-0.07486314 -0.11290549 -0.0031741469 0.07419982 0.0487018 0.030307472 -0.04630579 0.011030785
0.02091365 0.010714762 -0.025924705 0.012401477 0.049788013 -0.030299647 -0.024978848 0.015698915
-0.06993154 0.042787027 -0.26138124 -0.026406936 0.14239405 -0.005297241 -0.04601519 0.027504673
-0.10331648 0.016478142 -0.049474794 -0.072494015 -0.017261712 -0.074972674 0.036022965 0.05593394
0.013728102 0.03506765 0.011764792 -0.06846497 0.06087222 -0.016994573 -0.041181747 0.026125502
0.027645135 -0.009660674 -0.07948747 0.13335417 -0.019569138 -0.0076345247 0.029113002 0.06021559
-0.062021088 -0.050138842 -0.017680533 0.08364007 0.0890951 0.08349264 0.040831476 0.08582935
0.14197776 -0.17016919 0.045031406 0.00280123 0.0598852 0.04230464 0.037935127 0.02462197
0.06919561 0.01668363 -0.15904836 0.01976763 -0.27894688 0.009239655 -0.037106607 0.104173705
0.124381654 0.031586915 -0.03116449 0.050074108 0.027333844 -0.10136205 -0.0024843072 -0.08174911
0.029016355 -0.030290276 -0.0060668234 -0.016146788 0.05773934 0.072642416 0.08204701 -0.04540791
0.038788453 -0.042501908 0.0035322835 -0.11141107 0.20184802 -0.059334677 0.044123895 0.044749267
0.08804926 0.049614437 -0.11462617 -0.07351446 -0.06861974 -0.047117095 -0.0024708938 0.0067616566
-0.07683517 0.018320018 0.06945114 -0.08387154 -0.00033085656 -0.040681444 0.005412916 -0.030276343
-0.05930513 -0.02355684 -0.035592936 -0.0034292112 -0.11383933 -0.047538828 -0.25637922 -0.013159523
0.09444451 -0.035546385 0.15725827 0.050781906 -0.08761973 -0.017774533 0.15746242 -0.038624648
-0.006294135 -0.090076156 0.07894599 -0.00876657 0.04625283 -0.09001576 -0.052017443 0.020799346
0.070934676 0.16465418 0.04308097 -0.08079763 -0.020387014 -0.049622443 0.05013063 0.14681762
0.10507465 0.0121345995 0.0400089 0.06055004 -0.00066482247 -0.041697413 -0.062889956 0.012850219
0.04715896 -0.021749219 -0.004820571 -0.025842223 0.017449806 -0.057129264 0.04526338 -0.0100388285
0.1026979 -0.05666866 -0.065784104 0.05061213 0.053318094 0.054554794 -0.18851593 -0.13996749
-0.048392948 -0.014766641 0.017015884 0.08546266 0.1309802 0.104767 -0.090413876 -0.0024848275
0.15304059 -0.046628658 -0.16755505 -0.04099817 -0.031282373 0.05133358 0.01896906 -0.02134855
0.007294158 0.07729637 0.10403368 0.033209823 0.018183867 -0.091386035 -0.011798631 0.19392535
0.18897603 -0.14152499 0.052916054 0.06699324 0.1295915 0.045901153 0.013589837 -0.10056347
0.003920978 0.013672237 0.06441944 -0.052874323 0.10335893 0.06318437 -0.076723285 0.1264509

encoder.lstm.bias_ih_l1 f4 [200]
00000000: c50a 483d f911 c93d 1a5f 933c 0df6 8e3d
00000010: 47a7 973d 5981 c93d afd2 a83d 7895 183e
00000020: 19e2 5bbd ae13 723d 30ef 263e c7b2 0f3e
00000030: a54b 093e 6db2 033e b9a7 373e a988 083e
00000040: 83cb 363e 8780 eb3d a818 3c3c 1a17 f73c
00000050: 3682 f63d 06c9 823d 6ccf 5c3d 4e55 9c3d
00000060: 8146 623d 74f9 fb3c 5616 903d 9edc a43d
00000070: 46f7 9f3d d8a2 6c3d a3b5 953d acae 013e
00000080: d59d bb3d aa56 0f3e 7477 9c3d 38cb 1a3e
00000090: 8ee0 c73d 80df 3b3d c208 47bc 8e34 48bd
000000a0: 9db6 6a3d feab 9f3d b3e6 a3bc 8e15 1f3e
000000b0: b9c2 1b3d 9f42 c13d 127a d73d 583a bb3d
000000c0: 1f2e dd3d 237e 623d 4473 56bd 2817 b5bd
000000d0: 9783 09bd 6f2c aebc 2673 d4bd cf5f 91be
000000e0: 4cec 03be 4e7b 83bd 0392 31bd e789 10bc
000000f0: 4580 c4be 5491 bbbd 30bd 8fbd 6885 c3bd
00000100: 6d71 3fbd 5935 c7bd d9e5 babd e9d8 dcbd
00000110: 84f9 6abc 5310 8abd 8c26 8abd 23e7 aabd
00000120: fcfc 2dbd ff08 98bd 996e a9be 3710 4ebd
00000130: 5348 58bd 9eaf 2fbd c31a c2bd 5477 87be
00000140: d9b8 b5bd bae0 81be 7f3d cbbd 5596 87bd
00000150: 7622 6ebd 234e babe 092d 6fbd e1c2 67be
00000160: 9295 00bc 8f05 1cbd 1d44 b8bd 6300 5cbd
00000170: 208a 3bbd 98d1 8abe 9cd8 86bd de21 14bd
00000180: 13e2 47bd 5c5b 95bd c4d8 debd 1079 c5bd
00000190: c151 c9bb ee13 b13c e678 343d b043 02bd
000001a0: 4169 28be e31b b1bd 85e2 0d3d 23da 13be
000001b0: 0c1a 7c3b c3f8 83bc e87c 87bd 3e2b 2e3e
000001c0: a807 0a3e bfa2 0d3e d344 08be 67ee 4bbe
000001d0: 2d70 9cbe 1c7d 82bb 9af7 963d decf 0fbd
000001e0: ab9d 453c a6ef b3bd 501a 2cbe 1d1c b0bd
000001f0: d1c5 05be 109a 9cbd e964 1ebe 25ea 7abd
00000200: 67a7 c73a 9d2e 193e a250 a63d bc69 6cbd
00000210: efe7 d1bb c6f1 ac3d 094d dd3d fd66 803c
00000220: 7a0a b93d f4bc 3fbc 0580 ab3d 5153 143d
00000230: f1ef 09be 2df7 f13d 6d6a 2bbe ae85 04be
00000240: 80b8 bf3d 93b4 583c 5ee8 ee3d 6c8c 17be
00000250: e6d3 10bc cb6b dc3d 9cf5 d0bd 72c5 cd3d
00000260: d1fc 683d 283c 803d 4699 9d3d 439e bb3d
00000270: 83b3 1d3d e1a2 0c3e b797 afbd ed60 2dbc
00000280: ccc3 773e 6a16 073e 9dc7 043e 83a5 f23d
00000290: 38fb 403e d9d6 053e a5e9 cd3d c6d9 ed3d
000002a0: 0bbb c7bc d1aa 90bd e996 413e b643 a83c
000002b0: 1c47 ac3b 93d9 983d 27e1 013e 6a83 18bd
000002c0: 1982 aebd 3aa2 c93d 511b cc3c 93b2 383d
000002d0: 3c42 793d 395b 403e d86c 503d 0cfd 0a3e
000002e0: 60ac 573d 7246 793e 68fa 903d 3426 5b3e
000002f0: 2d56 dfbc 7381 723c 853f e03d c01d 453d
00000300: 5377 aebd f4bd be3d cd06 7dbd 012c 1d3e
00000310: dd24 933d 5048 9e3d 861f d63d a6ce 223e
0.048838396 0.09817881 0.017989684 0.06980524 0.074049525 0.09839124 0.0824331 0.14900768
-0.05368242 0.0591008 0.1630218 0.14033042 0.13407762 0.12861033 0.17935075 0.13333382
0.17851071 0.11499124 0.011480488 0.030162383 0.120365545 0.063859984 0.05390875 0.07633458
0.05524302 0.030758597 0.0703551 0.08049892 0.078108355 0.057772487 0.07310035 0.12664288
0.091609634 0.13997903 0.076399714 0.15116584 0.09759627 0.045867443 -0.012148084 -0.048878245
0.05730306 0.07796477 -0.020007467 0.15535566 0.0380275 0.09436535 0.1052133 0.091419876
0.107998125 0.055296075 -0.05235602 -0.08842307 -0.03357276 -0.021261422 -0.10373525 -0.2839341
-0.12883109 -0.06420003 -0.04335214 -0.008821941 -0.38379112 -0.091585785 -0.070185065 -0.095469296
-0.04673903 -0.09726972 -0.09125871 -0.1078356 -0.014341716 -0.06741395 -0.067456335 -0.08344867
-0.042477593 -0.07423591 -0.33092192 -0.050308432 -0.05280335 -0.04289209 -0.09477761 -0.26458228
-0.088731475 -0.25366765 -0.09923839 -0.066204704 -0.058138333 -0.3638774 -0.05839256 -0.22632934
-0.00784816 -0.03809124 -0.089973666 -0.053711306 -0.045786023 -0.27113032 -0.06584284 -0.03616511
-0.048799586 -0.07292816 -0.108811885 -0.096422315 -0.006143779 0.021615949 0.04406061 -0.031802833
-0.16446401 -0.08647897 0.034639854 -0.14438681 0.0038467674 -0.01610983 -0.06615621 0.17008683
0.13479483 0.13831614 -0.13307504 -0.19915162 -0.30554333 -0.0039821994 0.07371445 -0.035110347
0.012061517 -0.08785944 -0.16806912 -0.08599112 -0.13063742 -0.076465726 -0.15468182 -0.061258454
0.0015232385 0.14959188 0.08120848 -0.057718024 -0.0064058225 0.08444552 0.10805709 0.015674109
0.09035201 -0.011702765 0.08374027 0.03621227 -0.13470437 0.11814723 -0.16739817 -0.1294162
0.093613625 0.013226646 0.11665414 -0.1479966 -0.008839583 0.107627474 -0.10203096 0.10047425
0.05688173 0.06261474 0.0769525 0.091610454 0.038501274 0.13734008 -0.08573859 -0.010582191
0.24195784 0.13192144 0.12966771 0.11847975 0.18845832 0.13070239 0.1005433 0.116138026
-0.024381181 -0.07063831 0.18905224 0.0205401 0.0052575003 0.07463374 0.12683545 -0.0372347
-0.08520908 0.098453954 0.02491537 0.045092177 0.06085418 0.18784799 0.05088505 0.13573092
0.052654624 0.24343279 0.07079011 0.21401292 -0.027262772 0.014801371 0.109496154 0.048124075
-0.08518853 0.093135744 -0.061774064 0.15348817 0.071847655 0.07728636 0.10455231 0.15899143

encoder.lstm.bias_hh_l1 f4 [200]
00000000: 4830 bd3d 0410 c93d 25f5 35bc 513c 8f3d
00000010: d36a c03d f1ce ba3d 60d2 a83d 7895 183e
00000020: 9ca1 f8bd 262f cebc 558e fd3d c7b2 0f3e
00000030: a54b 093e 6db2 033e 0254 e13d a988 083e
00000040: 979a 343e 8880 eb3d 218b 9439 fd68 f63c
00000050: a41e 2e3d 646c 823d f417 823d 4e55 9c3d
00000060: 732a db3c ee74 293d 840b 913d c90f a63d
00000070: 46f7 9f3d 6c98 b7bb a3b5 953d 422e f13d
00000080: d59d bb3d aa56 0f3e 4e26 a73d fcf3 073e
00000090: 8ee0 c73d 820c 0e3e 3094 48bc 7c8a f63c
000000a0: fd1f 953d d3a1 e83d 6e05 cd3c 8e15 1f3e
000000b0: 9b3b 1a3d 87bb bc3d b265 353d f7d6 bd3d
000000c0: 202e dd3d 8b1f 363d cef8 42bd 2817 b5bd
000000d0: 3eb6 d1bd 672c aebc 76ca cfbd 51a8 83be
000000e0: 3505 04be 4e7b 83bd 1029 35bd bd05 97bd
000000f0: 3c52 c0be ab8f bbbd 30bd 8fbd 3f85 c3bd
00000100: 7c9f 62bd 5a35 c7bd d75f 98bd e7d8 dcbd
00000110: b362 babc 5310 8abd 01e4 b1bd 23e7 aabd
00000120: 3b85 2ebd ff08 98bd 426d a9be 7c10 4ebd
00000130: ccd6 56bd 9eaf 2fbd 661e c2bd f160 89be
00000140: d7b8 b5bd dfd6 85be 803d cbbd fe56 87bd
00000150: 4416 6ebd 706f a2be 3e12 6fbd 8e51 71be
00000160: 9295 00bc 3737 15bd e2f0 b3bd 8256 8cbd
00000170: 4103 3dbd 55d1 8abe 9cd8 86bd d722 ffbc
00000180: c3ee 39bd 224e 8fbd 76d7 debd 6166 d1bd
00000190: 862c 6abc 06e9 8bbd f23a 57bb a34f 85bd
000001a0: 3ff9 09bd c740 1b3d 6d0b a4bb 1a79 e8bd
000001b0: 2142 f5bd 8f41 3d3d 94ad a5bd 1c27 5b3e
000001c0: 6cf8 033c 1306 343e 0037 39be 5b16 00be
000001d0: 41c6 70be cb5c 9b3c a975 163e 7414 8dbc
000001e0: 91ea c5bb 00d0 83bd f53e 20be cdd1 543d
000001f0: 518f 41bd 71d0 57bd c097 11be 3671 91bc
00000200: 50b0 a6bd 5ffd d43d af25 d23d 96cf 83bd
00000210: 4824 2cbe 3253 eb3d b982 323b 1baf 2f3d
00000220: 1dbf 803e 234a 54bd e167 0fbb 24f9 703d
00000230: 5013 cc3c 66db f13d 1a01 2cbe f0be 21be
00000240: 1c7b 023e 1808 b53d 99fe 5a3d 4f1d 23be
00000250: 921f 1cbd 8ff1 943c c771 bbbd 72c5 cd3d
00000260: 7fd3 983d 8102 803d 1277 0f3e eb83 ca3d
00000270: 83b3 1d3d e1a2 0c3e 6581 c6bd d926 ff3b
00000280: 0fa5 933e 6a16 073e 9dc7 043e 83a5 f23d
00000290: b478 473e d9d6 053e 5ef5 cd3d c6d9 ed3d
000002a0: ccbc 71bc d1aa 90bd e3d8 363e b643 a83c
000002b0: 8dc5 f13b 93d9 983d 462f 133e 8450 18bd
000002c0: dbda aebd 3aa2 c93d 511b cc3c 4df2 9c3d
000002d0: 3c42 793d cb70 323e d86c 503d 0cfd 0a3e
000002e0: 71ac 573d a548 793e 68fa 903d b87b 5f3e
000002f0: 0256 dfbc 289c 333d 99e7 9f3d 3c55 343d
00000300: 757c 87bd f4bd be3d cd06 7dbd bc74 163e
00000310: 6815 3f3d 084c 9e3d 861f d63d 18fd 243e
0.092377245 0.09817508 -0.01110581 0.06993926 0.09395375 0.09121502 0.08243251 0.14900768
-0.121401995 -0.025168967 0.12380663 0.14033042 0.13407762 0.12861033 0.11002351 0.13333382
0.17637096 0.11499125 0.0002833242 0.03007936 0.04250969 0.0636833 0.06352225 0.07633458
0.02675364 0.04137128 0.070822746 0.081084795 0.078108355 -0.005602887 0.07310035 0.11776401
0.091609634 0.13997903 0.08161603 0.13276666 0.09759627 0.13871959 -0.012242362 0.030095331
0.07281492 0.113589905 0.025027003 0.15535566 0.0376545 0.092154555 0.044286437 0.09269517
0.10799813 0.044463675 -0.04760056 -0.08842307 -0.10239838 -0.021261407 -0.10146038 -0.25714353
-0.12892611 -0.06420003 -0.044228613 -0.07374141 -0.3756274 -0.09158262 -0.070185065 -0.09546899
-0.055327877 -0.09726973 -0.07440155 -0.10783558 -0.022752142 -0.06741395 -0.086860664 -0.08344867
-0.042607527 -0.07423591 -0.3309117 -0.05030869 -0.05245094 -0.04289209 -0.09478454 -0.26831773
-0.08873146 -0.26140496 -0.099238396 -0.06608389 -0.058126703 -0.31725645 -0.058367006 -0.23566267
-0.00784816 -0.03642961 -0.08786179 -0.068524376 -0.04614568 -0.27112833 -0.06584284 -0.031144543
-0.045393717 -0.069973245 -0.1088094 -0.10224605 -0.014292842 -0.06831555 -0.003284153 -0.0650933
-0.033684965 0.037903573 -0.005006245 -0.11351223 -0.11975504 0.0462051 -0.08089748 0.21401638
0.008054834 0.17580442 -0.18087387 -0.12508528 -0.23513128 0.018965146 0.14693321 -0.017221667
-0.0060399254 -0.06436157 -0.15649016 0.051957894 -0.047255818 -0.05268902 -0.14218044 -0.017754178
-0.08139098 0.10399889 0.10261094 -0.06436078 -0.16810715 0.114904776 0.0027238561 0.042891603
0.25145808 -0.051828515 -0.0021881985 0.05883135 0.024911553 0.11809425 -0.16797295 -0.15795493
0.12742275 0.088394344 0.05346546 -0.15929149 -0.038116045 0.01818159 -0.09152561 0.10047425
0.07462215 0.062504776 0.14010265 0.098884426 0.038501274 0.13734008 -0.09692649 0.0077866134
0.28836867 0.13192144 0.12966771 0.11847975 0.19479638 0.13070239 0.10056566 0.116138026
-0.014754485 -0.07063831 0.17856173 0.0205401 0.007378286 0.07463374 0.14373502 -0.03718616
-0.08537837 0.098453954 0.02491537 0.07663403 0.06085418 0.1742584 0.05088505 0.13573092
0.052654687 0.24344118 0.07079011 0.21824539 -0.027262691 0.043850094 0.078078456 0.0440266
-0.06615535 0.093135744 -0.061774064 0.14692968 0.046651274 0.077293456 0.10455231 0.16112173
