LSTMAutoEncoder/LSTM_20240612_103435_latest.pth (torch, 962600 bytes, 54 tensors)

encoder.lstm.weight_ih_l0 f4 [200, 38]
0	0xbc3e2f7a	-0.011607999
1	0x3e007e9d	0.12548299
2	0x3e19a075	0.15002616
3	0x3e049261	0.12946464
4	0x3e06ff6a	0.1318337
5	0x3d127b98	0.0357624
6	0x3ea0f6a1	0.31438163
7	0x3dbfa4bf	0.09357595
8	0x3ef8c72f	0.48589465
9	0x3d8055ae	0.06266342
10	0x3d268bda	0.040660717
11	0xbb3d052a	-0.002884219
12	0xbd22bc43	-0.03973032
13	0xbcd8aabb	-0.026448598
14	0x3e8e0b64	0.27743065
15	0xbcd63f06	-0.026153099
16	0x3efed0b1	0.49768594
17	0x3e0f49ad	0.13992949
18	0xbd44514a	-0.047929086
19	0xbd2c9d23	-0.042142045
20	0xbe7eaa29	-0.24869598
21	0xbe3640b9	-0.17798127
22	0xbe1d486e	-0.15359661
23	0x3d6d2a25	0.05790152
24	0x3e3a8658	0.1821531
25	0x3defa30b	0.1170102
26	0xbee1d652	-0.44108826
27	0xbed49cb5	-0.41525808
28	0xbeb5af8a	-0.35485488
29	0xbe00c15b	-0.1257376
30	0x3e9cd167	0.3062851
31	0x3f15e42c	0.5855129
32	0x3d1a4ecf	0.037672814
33	0x3e75ae6b	0.23992316
34	0xbe1b5f0f	-0.1517298
35	0x3e1118f7	0.1416968
36	0xbe1c9b63	-0.1529365
37	0xbd6d2989	-0.05790094
38	0x3ba103a8	0.004913766
39	0x3d05f213	0.032701563
40	0x3d2e5be5	0.042568106
41	0x3da38ff7	0.079864435
42	0xbaace6dc	-0.001319136
43	0xbbdd1700	-0.0067471266
44	0x3c03e194	0.0080493875
45	0xbc2fdd4a	-0.010733912
46	0xbbe6c818	-0.007042896
47	0x3d093ed7	0.033507194
48	0x3b8b77af	0.0042562108
49	0x3da10853	0.07862916
50	0xbb8e12e6	-0.004335749
51	0xbb6f3276	-0.0036498583
52	0xbb40b114	-0.0029402422
53	0x3d2bae05	0.041914005
54	0x3c05b688	0.008161195
55	0x3dac85ac	0.084239334
56	0x3ae052db	0.0017114537
57	0xbbb30d81	-0.0054642563
58	0x3c53c97b	0.012926455
59	0xbbba2279	-0.005680379
60	0x3bc6ee4d	0.006070888
61	0x3c6d362e	0.0144782495
62	0xbb8dfcde	-0.0043331226
63	0x3c03b456	0.008038601
64	0x3c6bb14d	0.0143855335
65	0x3c3c2618	0.011483692
66	0x3c24b18e	0.010052098
67	0x3ca3c859	0.019992994
68	0xb94d6243	-0.00019586929
69	0x3c9923fa	0.018693913
70	0x3c5e1bc6	0.013556426
71	0x3b234f64	0.0024919147
72	0x3c8d15e7	0.017222358
73	0x3a0363df	0.00050121354
74	0x3c81bdee	0.015837636
75	0x3ca97a3c	0.020688169
76	0xbc9bf435	-0.019037345
77	0xbcc09969	-0.023510652
78	0xbd072e11	-0.033002917
79	0xbd1d8b53	-0.038462948
80	0x3d2fc9d9	0.042917106
81	0xbdaef3e2	-0.08542611
82	0x3e0904a0	0.1338067
83	0xbd467fde	-0.048461787
84	0x3dafb78b	0.0857993
85	0x3e8ccc89	0.27499798
86	0xbe49538b	-0.19660775
87	0x3cae4701	0.021274092
88	0xbd854a01	-0.06508256
89	0xbdaf0559	-0.08545942
90	0xbc98f430	-0.018671125
91	0x3e30417d	0.17212482
92	0x3d97d417	0.074135
93	0xbe83bd70	-0.25730467
94	0x3c98b1cd	0.01863947
95	0xbdbeae01	-0.09310532
96	0xbaf287cd	-0.0018503607
97	0xbd4dbab1	-0.05022687
98	0xbcf5fa20	-0.030026495
99	0x3c1ab316	0.0094421115
100	0xbd7a1530	-0.061055362
101	0xbc4df7db	-0.0125713
102	0xbde9dd73	-0.11419191
103	0xbd5102b3	-0.051027965
104	0xbe179dbe	-0.14806268
105	0x3e24aa80	0.16080666
106	0x3e939691	0.2882581
107	0xbda99772	-0.08280839
108	0x3df37c48	0.11888939
109	0x3e1ba67d	0.15200229
110	0xbd29c0d8	-0.041443676
111	0xbc845c78	-0.016157374
112	0xbcffe183	-0.031235462
113	0xbd04088f	-0.032234725
114	0xbcaf84c3	-0.02142561
115	0xba8c79e8	-0.0010717483
116	0x3d14c68b	0.036322158
117	0x3bf4bb13	0.00746859
118	0x3d4216c2	0.047384985
119	0x3a948f02	0.0011334124
120	0x3ca9ac39	0.020712005
121	0x3b340a1e	0.002747185
122	0x3bb4e949	0.005520974
123	0x3c81dca0	0.015852273
124	0x3cae09cf	0.021244911
125	0x3d75f011	0.0600434
126	0x3d933fae	0.0718988
127	0x3a90cfad	0.001104822
128	0x3d16c429	0.036808167
129	0xbc56d907	-0.013113267
130	0xbd038d89	-0.0321174
131	0xbccd04de	-0.025026735
132	0x3d6d50cb	0.05793838
133	0x3a232b04	0.00062243664
134	0x3d8afca9	0.06786472
135	0x3a7381fa	0.00092890824
136	0x3d914f4d	0.070952035
137	0xbbb496f7	-0.0055111605
138	0x3d810223	0.06299236
139	0x3b02a1db	0.00199329
140	0x3db14776	0.08656208
141	0x3bc76127	0.0060845795
142	0x3c55725d	0.013027755
143	0x3cc77162	0.024346057
144	0xbc8d412f	-0.017242996
145	0x3d1820f3	0.037140798
146	0x3c38570a	0.0112512205
147	0xbbb382da	-0.005478245
148	0xbc5ef701	-0.013608695
149	0xbc0693f5	-0.008213987
150	0x3cfa3b48	0.030545846
151	0xbc824637	-0.015902622
152	0x3c41131a	0.011784339
153	0xbbdb714a	-0.0066968547
154	0x3e40276c	0.18765038
155	0x3da76625	0.081737794
156	0xbd2705ae	-0.0407769
157	0xbceaf217	-0.02867989
158	0x3dadf9c8	0.084949076
159	0xbdaf5ff6	-0.08563225
160	0x3e38dd21	0.18053104
161	0xbd611771	-0.054953996
162	0x3c444086	0.011978274
163	0x3d305911	0.04305369
164	0xbdf9af11	-0.121915944
165	0x3d3fe210	0.04684645
166	0xbcaf06ec	-0.021365605
167	0x3d6bfcf8	0.057614297
168	0x3df690f2	0.12039365
169	0x3c25aadd	0.010111538
170	0xbd65c6bc	-0.05609773
171	0xbc801902	-0.015636925
172	0xbc94d4f1	-0.018167945
173	0x3d5011ba	0.050798155
174	0x3d60f41d	0.054920305
175	0x3c7184d4	0.014741141
176	0x3e40ddba	0.18834582
177	0xbc2fb33c	-0.010723885
178	0xbe0f2a88	-0.13981068
179	0x3e724a6c	0.23661202
180	0xbaf15178	-0.001841112
181	0x3d36e656	0.04465326
182	0x3e5a3e2d	0.2131278
183	0xbdff3aa6	-0.12462358
184	0x3e1f8b3c	0.15580457
185	0xbdb3831b	-0.08765241
186	0x3dab3b01	0.083608635
187	0x3cffffa4	0.031249829
188	0xbde4062c	-0.1113399
189	0x3e154a23	0.14579062
190	0xbc117485	-0.008877878
191	0x3cf04bf8	0.0293331
192	0x3dabf828	0.083969414
193	0x3d467b8f	0.04845768
194	0x3caaccc4	0.020849593
195	0x3bb39613	0.0054805367
196	0x3ca58e83	0.020209556
197	0xbbe74c99	-0.0070586917
198	0xbc06b8e6	-0.008222794
199	0x3d115350	0.035479844
200	0xbd5ba4cb	-0.053623956
201	0xbb8ce54c	-0.0042997953
202	0x3c7c78a5	0.015409623
203	0x3cceb14c	0.025231026
204	0x3c83856a	0.016054828
205	0x3d82beec	0.06384072
206	0x3d32bfc0	0.0436399
207	0xbc71d911	-0.014761225
208	0x3cec59f4	0.028851487
209	0xbba0ba6e	-0.0049050367
210	0x3d2c60dd	0.042084564
211	0xbcd5fd96	-0.026121896
212	0x3cbff888	0.023433939
213	0x3b7a9f1b	0.0038241807
214	0x3ba1f676	0.0049427105
215	0x3cb5fd59	0.022215532
216	0x3cc594d0	0.02411881
217	0x3c373df6	0.011184206
218	0x3b78fecf	0.0037993675
219	0x3d7a7cc5	0.061154146
220	0x3db5191e	0.08842681
221	0x3c658fc2	0.014011325
222	0x3d57cf92	0.05268819
223	0xbc0956fb	-0.008382554
224	0x3c5bea68	0.013422586
225	0xbcd2521a	-0.025673915
226	0xbbf4e728	-0.007473845
227	0x3d91df47	0.07122665
228	0xbcf124ec	-0.029436551
229	0x3bdd23e5	0.0067486637
230	0x3d905019	0.070465274
231	0x3d073ce7	0.033017065
232	0x3aad4d17	0.0013221827
233	0x3c0d31f2	0.008617865
234	0xbbe782f5	-0.007065172
235	0x3bdcb8c2	0.006735892
236	0x3c08a4a2	0.008340033
237	0xbd3a90af	-0.045548137
238	0x3d207122	0.03917039
239	0x3d893817	0.067001514
240	0x3c37f0b3	0.011226821
241	0x3bcd1464	0.0062585343
242	0x3da200ea	0.079103306
243	0xbd6bc3ef	-0.057559904
244	0x3e502b56	0.20329031
245	0x3c3a9c97	0.011389873
246	0x3c8fdb92	0.017560754
247	0x3cd6d30f	0.026223687
248	0x3d51c773	0.0512156
249	0x3d3c4737	0.045966353
250	0x3d40e593	0.04709394
251	0x3c63d904	0.013906721
252	0x3c8af32d	0.016961658
253	0x3b4c97c7	0.0031218396
254	0x3d3b8f86	0.04579117
255	0x3d0b4db8	0.034009665

encoder.lstm.weight_hh_l0 f4 [200, 50]
0	0x3eeb2916	0.45929784
1	0x3c243358	0.010022007
2	0xbc21c0a3	-0.009872588
3	0xbd84ef50	-0.06490958
4	0x3ce0e6b0	0.02745375
5	0xbe5685d3	-0.20949487
6	0xbc05ebd0	-0.008173898
7	0xbd99fe36	-0.0751919
8	0x3cd03381	0.025415184
9	0xbd86b9ee	-0.06578432
10	0xbd0b84e8	-0.034062296
11	0xbdc2b94b	-0.09507998
12	0x3cbbb201	0.022912027
13	0xbcfc3ea8	-0.030791596
14	0x3d61a62b	0.05509011
15	0xbd36f453	-0.0446666
16	0x3ad0e973	0.0015938714
17	0x3be15b75	0.0068773576
18	0x3d13df75	0.036101777
19	0xbc9cfdca	-0.019163985
20	0xbe10b725	-0.14132364
21	0x3d359ffd	0.04434203
22	0xbeadcbe5	-0.33944622
23	0x3e072e3e	0.13201234
24	0x3d92692a	0.07148965
25	0x3dcdcda0	0.100489855
26	0xbd3c7fd1	-0.046020333
27	0xbe0ae9d2	-0.13565758
28	0xbe2e7b85	-0.17039306
29	0xbe396ec0	-0.18108654
30	0xbbcb9a0b	-0.0062134317
31	0xbd0a3845	-0.03374507
32	0xbc2265d7	-0.009911976
33	0xbac109db	-0.0014727669
34	0x3e2b87e0	0.16751051
35	0xbc31a584	-0.010842685
36	0x3e1f500f	0.15557884
37	0x3afd5334	0.0019327165
38	0xbd890885	-0.06691078
39	0xbe4f7104	-0.20257956
40	0xbc7194c6	-0.014744943
41	0x3e4a2dc3	0.19744019
42	0x3dcfd758	0.101484954
43	0x3dfe9aa2	0.124318376
44	0x3e249313	0.1607173
45	0xbd53a8f5	-0.0516748
46	0xbc81dff6	-0.015853863
47	0xbeb08605	-0.3447725
48	0x3dcfe190	0.101504445
49	0x3c01f1c7	0.007931179
50	0xbcc42582	-0.023943666
51	0xbd0baa3b	-0.03409789
52	0x3be90644	0.0071113426
53	0x3cdefbb1	0.027219625
54	0xbe156609	-0.14589705
55	0xbd4da2cf	-0.050204094
56	0x3c1efdf4	0.009704102
57	0x3df11339	0.117712446
58	0x3e232d09	0.15935148
59	0x3cc1a73d	0.023639316
60	0xbd48e5f9	-0.049047444
61	0xbc1c26fe	-0.009530781
62	0xbe1481d4	-0.1450265
63	0x3cf1c915	0.029514829
64	0xbd805926	-0.06267004
65	0x3d0b88a9	0.034065876
66	0x3cf9e058	0.030502483
67	0xbce96dfa	-0.028494824
68	0xbc64dd66	-0.013968801
69	0xbcebe484	-0.028795488
70	0xbb99bbcb	-0.004691576
71	0xbc80cf7a	-0.015723933
72	0x3d65719c	0.05601655
73	0xbc56a6f6	-0.01310133
74	0xbd509efd	-0.050932873
75	0xbd824390	-0.06360543
76	0x3d56980c	0.052391097
77	0x3d995424	0.07486752
78	0xbd2c4c7e	-0.042065136
79	0x3d7e8ad2	0.062144108
80	0x3d6cd390	0.05781895
81	0x3d8a037b	0.06738945
82	0x3cd08c32	0.025457475
83	0x3d87437e	0.0660467
84	0xbd8b5f68	-0.06805307
85	0xbc02d916	-0.007986328
86	0x3c8dd0e4	0.01731152
87	0x3c8576a7	0.01629193
88	0x3d507133	0.050889205
89	0x3d19ea14	0.03757675
90	0x3d034f19	0.032057855
91	0x3d5b9b44	0.05361487
92	0xbcf63308	-0.03005363
93	0x3d0b044d	0.03393965
94	0xbd8f0b29	-0.069845505
95	0x3e106141	0.140996
96	0x3c5c1854	0.013433535
97	0x3cbd022d	0.023072327
98	0xbd06e54b	-0.032933515
99	0xbb6919aa	-0.0035568275
100	0xbea3c1c6	-0.31983775
101	0x3e22491a	0.15848199
102	0x3de413c8	0.111365855
103	0x3e49f06a	0.19720617
104	0x3e8023fb	0.2502745
105	0xbdb84d0c	-0.089990705
106	0x3e2abf37	0.16674505
107	0xbe6678a5	-0.2250696
108	0xbc633678	-0.013867967
109	0xbe0fc603	-0.14040379
110	0x3ce889ba	0.028385986
111	0x3b1b1822	0.0023665507
112	0x3e8f4b7a	0.27987272
113	0xbdb707c9	-0.08937032
114	0xbd107325	-0.03526606
115	0x3da3991b	0.07988187
116	0x3c174c4a	0.009234497
117	0xbd8925bf	-0.066966526
118	0xbdc526c4	-0.096265346
119	0x3e5fc690	0.2185309
120	0xbed99535	-0.42496648
121	0x3c9908df	0.018680988
122	0x3e14ee86	0.14544114
123	0x3dcf4aed	0.10121713
124	0x3e29da90	0.16587281
125	0x3ba2de7b	0.0049703694
126	0x3cf80e71	0.030280324
127	0xbd9b8ea3	-0.07595565
128	0x3e70f763	0.2353187
129	0xbd2a25f8	-0.041540116
130	0xbe4ec3b2	-0.2019184
131	0xbed3eda5	-0.41392246
132	0xbdd59f70	-0.10430801
133	0x3db622c6	0.08893351
134	0x3b6733c5	0.003527866
135	0x3db10e87	0.08645349
136	0xbe9f26e6	-0.31084365
137	0x3d18bde6	0.037290476
138	0xbe57e8e6	-0.21084937
139	0xbd92f3a7	-0.07175379
140	0xbdd96baa	-0.106162384
141	0xbe040750	-0.12893414
142	0x3de0bcb7	0.109734945
143	0xbec7c7e1	-0.39019683
144	0xbdea9920	-0.114549875
145	0xbe51f3e6	-0.20503196
146	0xbdf75ede	-0.12078641
147	0x3e3f31bb	0.18671314
148	0x3dd763c6	0.10517077
149	0x3d861f8b	0.06548985
150	0xbed3ea38	-0.41389632
151	0x3dc34c97	0.09536093
152	0xbe51c3b6	-0.20484814
153	0x3b7b9a11	0.0038391391
154	0x3d150cf1	0.036389295
155	0x3dad1db4	0.08452931
156	0xbd322297	-0.04349002
157	0xbd4df074	-0.050278142
158	0xbc9b699b	-0.018971255
159	0xbe0ee4c6	-0.13954458
160	0x3d39a15f	0.04531991
161	0x3deccfbd	0.115630604
162	0x3d317a9d	0.043329824
163	0xbe6d29a1	-0.23160411
164	0x3d84a3e1	0.0647657
165	0xbd82ab67	-0.06380349
166	0xbd3a16c2	-0.04543186
167	0xbcf0d3b2	-0.02939782
168	0xbe23461b	-0.15944712
169	0xbce76b37	-0.028249366
170	0xbdf8978f	-0.121382825
171	0xbd73a31b	-0.05948172
172	0x3e0b7c5c	0.13621658
173	0xbebbf743	-0.36712083
174	0x3d404e48	0.046949655
175	0x3df64231	0.12024344
176	0x3ea756ff	0.3268356
177	0x3e5a42c7	0.21314536
178	0x3ea8d2c0	0.3297329
179	0x3d774d05	0.060376186
180	0x3c52b15d	0.0128596695
181	0x3d7971fa	0.060899712
182	0x3d806847	0.06269889
183	0xbd0cffcb	-0.03442363
184	0xbe9a01dd	-0.30079547
185	0x3d347108	0.044053108
186	0xbe74c7c5	-0.23904331
187	0x3e7d3cd6	0.24730238
188	0x3d3af45d	0.0456432
189	0x3c529c0b	0.012854586
190	0xbdf57639	-0.1198544
191	0xbd212c42	-0.03934885
192	0x3d8f9b1d	0.070120074
193	0x3d458ec0	0.04823184
194	0xbdbc83c7	-0.09204822
195	0xbdc24b64	-0.09487036
196	0x3e087171	0.13324524
197	0x3e47c771	0.19509675
198	0xbc77cf86	-0.015125161
199	0xbd33212d	-0.04373281
200	0xbe9cd4ae	-0.30631012
201	0x3c5a1e1d	0.013312844
202	0x3d2e9d89	0.042630706
203	0x3c52300b	0.012828837
204	0xbeb63f08	-0.35594964
205	0x3d03e87d	0.03220414
206	0x3e828206	0.25489825
207	0x3e9536b4	0.29143298
208	0x3e36a0bd	0.17834754
209	0x3e15e9c8	0.14639962
210	0xbdfe3884	-0.12413123
211	0xbda10664	-0.07862547
212	0xbe0ac058	-0.13549936
213	0xbe188e7d	-0.14898105
214	0xbd2e23e4	-0.042514697
215	0x3e0f5603	0.13997655
216	0x3d855e15	0.06512085
217	0xbb88cddd	-0.0041749314
218	0xbdabdfcc	-0.08392295
219	0xbcf89c1d	-0.030347878
220	0x3dbe9fe9	0.09307844
221	0xbe44a3ae	-0.19203064
222	0x3e2c6b54	0.16837817
223	0xbe78e432	-0.243058
224	0xbbe4d9f0	-0.006983988
225	0xbdc00b55	-0.093771614
226	0x3dadc74e	0.0848528
227	0x3e5cac57	0.21550117
228	0x3d91f0e2	0.07126023
229	0x3e550907	0.20804225
230	0x3da4ec46	0.08052878
231	0x3e62c031	0.22143628
232	0xbb97f67d	-0.004637538
233	0xbbfa7a69	-0.007643987
234	0xbe69660a	-0.22792831
235	0x3d0ab538	0.03386423
236	0x3d068d60	0.03284967
237	0x3d744174	0.059632733
238	0x3d84ec84	0.06490424
239	0x3e49cfd8	0.19708192
240	0xbd2f1725	-0.04274668
241	0x3c2aa5a1	0.010415466
242	0xbe532cbd	-0.20622535
243	0x3dddcd2c	0.10830149
244	0xbe71232f	-0.23548578
245	0x3e50394e	0.2033436
246	0xbd6e07fd	-0.058113087
247	0x3e55db19	0.2088436
248	0xbe48689f	-0.1957116
249	0x3df1d609	0.11808402
250	0xbda359d2	-0.07976116
251	0x3dcbbdec	0.09948334
252	0x3df3c4ff	0.119028084
253	0x3e2a6ff6	0.16644272
254	0xbcb0d9ca	-0.021588225
255	0x3de8a9ad	0.11360488

encoder.lstm.bias_ih_l0 f4 [200]
0	0x3f097c61	0.5370541
1	0x3f56c926	0.8390068
2	0x3e78d424	0.24299675
3	0x3e6e6e2d	0.23284216
4	0x3f1dfcd6	0.6171392
5	0x3f64bce5	0.8935073
6	0x3ea57380	0.32314682
7	0x3e87e2b5	0.2654015
8	0x3f663068	0.8991761
9	0x3f062379	0.52397877
10	0x3ecdfd86	0.40232486
11	0x3f24501e	0.6418475
12	0x3f7f24e2	0.99665654
13	0x3de2ea8e	0.11079894
14	0x3e1c9fd6	0.15295348
15	0x3eda3132	0.42615658
16	0x3e8dad23	0.27671155
17	0x3f70aca8	0.9401345
18	0x3e44a766	0.19204482
19	0x3eea5b5b	0.45772824
20	0x3eb2f4a6	0.34952277
21	0x3e5652d4	0.20930034
22	0x3f01e0cc	0.5073364
23	0x3e1c6a11	0.15274836
24	0x3e6fd5ec	0.23421448
25	0x3ee431e2	0.44569308
26	0xbd46e56b	-0.048558634
27	0x3ea1e774	0.31621897
28	0x3f538b5b	0.82634515
29	0x3d13d22a	0.0360891
30	0x3ec038f4	0.37543452
31	0x3ece94ba	0.40347844
32	0x3dcaf37c	0.09909722
33	0x3eb9d092	0.3629194
34	0x3e93ea5c	0.2888974
35	0x3ea0eea3	0.31432065
36	0x3f689d53	0.9086506
37	0x3e508578	0.20363414
38	0x3d9eba7e	0.07750414
39	0x3e813d39	0.25242022
40	0x3e0bfdf6	0.13671097
41	0x3cd4096f	0.025883405
42	0x3ed3457a	0.41263944
43	0x3f2b4b2a	0.66911566
44	0x3b0a2ed6	0.0021085045
45	0x3f140a2c	0.5782802
46	0x3f6f0484	0.93366265
47	0x3f4710ff	0.7776031
48	0x3e309821	0.17245533
49	0x3f236f56	0.6384176
50	0xbfa4de20	-1.2880287
51	0xbf4d24f7	-0.8013453
52	0xbef0e079	-0.4704626
53	0xbedc06d9	-0.42973974
54	0xbf7aca51	-0.9796496
55	0xbf22dbea	-0.6361681
56	0xbeeca8ae	-0.46222442
57	0xbf84f1e5	-1.038632
58	0xbec83526	-0.3910305
59	0xbf5ca1e4	-0.86184525
60	0xbf9651e0	-1.1743736
61	0xbfd3b4f2	-1.6539595
62	0xbed3c7ab	-0.41363272
63	0xbf043dca	-0.5165678
64	0xbf78f4d9	-0.9724861
65	0xbf6e4663	-0.9307615
66	0xbecca024	-0.39965928
67	0xbf829631	-1.0202085
68	0xbe87bb19	-0.26509932
69	0xbf5ecf15	-0.8703473
70	0xbf2ea58c	-0.68221354
71	0xbec5ded7	-0.38646576
72	0xbfa00041	-1.2500077
73	0xbeef7ca4	-0.4677478
74	0xbf154670	-0.58310604
75	0xbe8bad61	-0.27280715
76	0xbf52d7d3	-0.8236057
77	0xbf90dede	-1.1318014
78	0xbf297d0a	-0.6620642
79	0xbf49f331	-0.78886706
80	0xbf805e23	-1.0028728
81	0xbe8d0205	-0.27540603
82	0xbe7d85e0	-0.247581
83	0xbfabe446	-1.3429039
84	0xbf2ce9d2	-0.6754428
85	0xbf4bcc11	-0.79608256
86	0xbf0aa6df	-0.54160875
87	0xbee2cf69	-0.44298866
88	0xbf816607	-1.0109261
89	0xbe9f0d57	-0.31064865
90	0xbec98f18	-0.39366984
91	0xbf5baa50	-0.8580675
92	0xbeae805a	-0.340823
93	0xbefb5355	-0.49087015
94	0xbf725b87	-0.9467091
95	0xbf1500dc	-0.58204436
96	0xbf9df389	-1.2339946
97	0xbfd66c1e	-1.6751745
98	0xbe8f7f23	-0.28026685
99	0xbe9dc5f7	-0.30815098
100	0xbf9c748c	-1.2223067
101	0x3e953a56	0.2914607
102	0xbeb057d0	-0.34441996
103	0x3ea47ec4	0.32127964
104	0x3f325915	0.6966718
105	0x3f367a41	0.71280295
106	0xbdf2e189	-0.11859424
107	0xbeda0a77	-0.4258611
108	0xbef25428	-0.4732983
109	0xbe3cfb8a	-0.1845533
110	0x3c29d26e	0.010365112
111	0xbdb194e3	-0.08670976
112	0x3ee5faf2	0.4491802
113	0x3d99a4b2	0.07502116
114	0x3f0b60a9	0.54444367
115	0xbdc4e3c9	-0.09613759
116	0xbe3b4dea	-0.1829144
117	0xbe11b5a7	-0.14229451
118	0x3e3d20cd	0.18469544
119	0xbdd52274	-0.10406962
120	0xbe4092fc	-0.1880607
121	0x3ec62177	0.38697407
122	0x3fafda48	1.3738489
123	0xbe6a4f1d	-0.22881742
124	0x3e92ab90	0.28646517
125	0x3f8466d7	1.0343884
126	0x3e21725b	0.1576628
127	0xbeadee3c	-0.3397082
128	0x3f6e4614	0.9307568
129	0xbe8e7c0b	-0.27829012
130	0xbe84ae8d	-0.25914422
131	0xbed46861	-0.41485885
132	0x3ce91b7f	0.028455494
133	0x3d8e52d1	0.0694939
134	0xbeea3ee7	-0.45751116
135	0x3e91f816	0.28509587
136	0xbf39505d	-0.7238825
137	0x3dafd2db	0.08585139
138	0xbf0782f2	-0.5293418
139	0xbe4dfbd8	-0.20115602
140	0xbe5a98e0	-0.2134738
141	0xbdbd921d	-0.092563845
142	0x3f2afe08	0.6679387
143	0xbeda69a5	-0.42658725
144	0xbe3f6127	-0.18689404
145	0xbf8db564	-1.1070981
146	0xbea061ef	-0.31324717
147	0x3f8fdbb6	1.1238925
148	0x3ee4611c	0.4460534
149	0xbf26f5b7	-0.6521868
150	0x3f0c01c2	0.5469018
151	0x3f08f13c	0.53493094
152	0x3ea6a16b	0.32545027
153	0xbe5d92ac	-0.21637982
154	0x3f0b85b5	0.54500896
155	0x3ef513c7	0.4786665
156	0xbe0b69ab	-0.13614528
157	0x3ee32a5c	0.44368255
158	0x3f1eabf9	0.6198116
159	0x3e89090b	0.26764712
160	0x3eb1059d	0.34574595
161	0x3ecd86c5	0.40141883
162	0x3f0e8144	0.55665994
163	0xbdc21adf	-0.094777815
164	0x3e5c507a	0.21515074
165	0x3eb66f7a	0.35631925
166	0xbc1c3bc7	-0.009535736
167	0x3f01d54a	0.5071608
168	0x3c6567ef	0.0140018305
169	0x3ef917b7	0.48650905
170	0x3e5fcdf7	0.21855913
171	0x3de5e352	0.112249985
172	0x3ea66ef8	0.32506537
173	0xbf0b5cb8	-0.5443835
174	0x3e0332b9	0.12812318
175	0x3f121af6	0.5707239
176	0x3a685519	0.0008862778
177	0x3d250b07	0.04029372
178	0x3f142601	0.5787049
179	0x3e0bab74	0.13639623
180	0x3ec30960	0.3809309
181	0x3eaac3d4	0.3335253
182	0xbe02abc9	-0.12760843
183	0x3e771ac9	0.24131311
184	0xbf260bf6	-0.64862
185	0x3d27ccaf	0.040966686
186	0x3f082b0a	0.5319067
187	0xbdf5ad97	-0.11996
188	0x3e08d5cf	0.13362812
189	0x3dffe4e9	0.12494833
190	0x3cd4e037	0.02598582
191	0xbeadd056	-0.3394801
192	0x3eeb80c3	0.45996675
193	0x3ebd122b	0.36927924
194	0x3e1feb02	0.15616992
195	0x3f167319	0.58769375
196	0x3f186bb1	0.59539324
197	0x3f3e915d	0.74440557
198	0x3e2fb0f7	0.1715735
199	0x3ecddece	0.4020905

encoder.lstm.bias_hh_l0 f4 [200]
0	0x3f097aa4	0.5370276
1	0x3f56ca14	0.83902097
2	0x3e790c1e	0.24321029
3	0x3e9a9447	0.30191252
4	0x3f0c20e4	0.5473769
5	0x3f64c055	0.89355975
6	0x3ea564a3	0.32303342
7	0x3eb86051	0.36010984
8	0x3f664559	0.89949566
9	0x3f0ba6b1	0.54551226
10	0x3ec7cbd9	0.3902271
11	0x3f268f19	0.650621
12	0x3f61a510	0.8814249
13	0x3e0f1fdc	0.13976997
14	0x3e44ed29	0.19231094
15	0x3edd2a9d	0.43196574
16	0x3e8deb8d	0.27718773
17	0x3f71b7e6	0.9442123
18	0x3e448c67	0.19194184
19	0x3ed99919	0.42499617
20	0x3ec64e5d	0.3873166
21	0x3e1b6b3b	0.15177624
22	0x3f01e0cc	0.5073364
23	0x3e2bfc4c	0.16795462
24	0x3e9750b8	0.2955377
25	0x3ee27915	0.44233003
26	0x3d12e2a3	0.03586067
27	0x3ea5220b	0.32252535
28	0x3f5be4d3	0.85896033
29	0x3da17df1	0.078853495
30	0x3ee70cdf	0.45127007
31	0x3edcb324	0.43105423
32	0x3dcaf37c	0.09909722
33	0x3ea480da	0.32129556
34	0x3e51105d	0.20416398
35	0x3e852f5b	0.26012692
36	0x3f5a4719	0.85264736
37	0x3e5bb311	0.21455027
38	0x3dd50104	0.10400584
39	0x3e333571	0.17500855
40	0x3e3e9fa1	0.18615581
41	0x3cd47e18	0.025939032
42	0x3ec28f73	0.38000068
43	0x3f2b4b2a	0.66911566
44	0x3b045640	0.002019301
45	0x3f1d9474	0.61554646
46	0x3f6ee968	0.933249
47	0x3f471740	0.7776985
48	0x3e477647	0.19478713
49	0x3f2c3be8	0.6727891
50	0xbfa8a553	-1.3175453
51	0xbf4d24f7	-0.8013453
52	0xbee83768	-0.45354772
53	0xbedc84dc	-0.43070114
54	0xbf7d9daa	-0.990687
55	0xbf22e8cd	-0.63636476
56	0xbeecf7f0	-0.4628291
57	0xbf81df8f	-1.014635
58	0xbeba9ac9	-0.36446217
59	0xbf5da733	-0.8658325
60	0xbf9680e0	-1.175808
61	0xbfd4654f	-1.6593417
62	0xbee8e6fd	-0.4548873
63	0xbef906f6	-0.48638123
64	0xbf70a0de	-0.93995464
65	0xbf741efb	-0.9535977
66	0xbecd7b61	-0.40133193
67	0xbf829622	-1.0202067
68	0xbe87bf5c	-0.26513183
69	0xbf5faa83	-0.87369555
70	0xbf2464e8	-0.6421647
71	0xbebf5885	-0.37372223
72	0xbfaf5a32	-1.36994
73	0xbf01ce76	-0.5070566
74	0xbf13c5ab	-0.5772349
75	0xbea69f2e	-0.3254332
76	0xbf66f2ba	-0.9021412
77	0xbf97f9dd	-1.1873127
78	0xbf2e8c49	-0.6818281
79	0xbf4d3293	-0.80155295
80	0xbf6e9e78	-0.93210554
81	0xbe927dec	-0.28611696
82	0xbe7d85da	-0.24758092
83	0xbfaa6b58	-1.3314009
84	0xbf39a458	-0.72516394
85	0xbf47680d	-0.77893144
86	0xbf090858	-0.53528357
87	0xbee245db	-0.4419392
88	0xbf812179	-1.008834
89	0xbe9de334	-0.30837405
90	0xbed43743	-0.4144841
91	0xbf5be924	-0.8590262
92	0xbeaef5ac	-0.34171808
93	0xbefb669a	-0.49101716
94	0xbf725ba9	-0.9467111
95	0xbf19a94f	-0.6002397
96	0xbf9df315	-1.2339808
97	0xbfd6895d	-1.676067
98	0xbea1f377	-0.3163106
99	0xbe9e9e69	-0.30980232
100	0xbf8ae257	-1.0850323
101	0x3e3cfe74	0.18456441
102	0xbede113d	-0.43372527
103	0x3e606739	0.21914376
104	0x3f347cdb	0.70503014
105	0x3f53993d	0.826557
106	0xbc3c035d	-0.011475411
107	0xbed92951	-0.42414334
108	0xbef25428	-0.4732983
109	0xbe2ec60f	-0.17067741
110	0x3c29cf1c	0.01036432
111	0xbda9b8e7	-0.082872204
112	0x3ee5faf2	0.4491802
113	0x3d5b91c2	0.053605802
114	0x3f0bfc27	0.5468163
115	0xbde4797d	-0.111559846
116	0xbda255da	-0.07926531
117	0xbe059625	-0.13045557
118	0x3e892d78	0.26792502
119	0xbdc11fbe	-0.094298825
120	0xbe424dfb	-0.1897506
121	0x3eec0c46	0.46103114
122	0x3fbfbb13	1.4978966
123	0xbe2f102c	-0.17096013
124	0x3e9716e6	0.29509658
125	0x3f69d42e	0.91339386
126	0x3e0219d7	0.1270517
127	0xbeabb571	-0.33536866
128	0x3f42ac26	0.7604393
129	0xbea7d405	-0.32778946
130	0xbe77eed1	-0.24212195
131	0xbed46861	-0.41485885
132	0xbd9d0b66	-0.0766819
133	0x3d69bdfd	0.057065953
134	0xbeeea15e	-0.46607488
135	0x3e53f136	0.20697483
136	0xbf523ac0	-0.82120895
137	0x3e7571a4	0.23969132
138	0xbf28cccb	-0.6593749
139	0xbe80dd6e	-0.25168937
140	0xbdf67b08	-0.12035185
141	0xbdd0595e	-0.101732954
142	0x3f33f680	0.70298004
143	0xbf06d981	-0.52675635
144	0xbda521c8	-0.08063084
145	0xbf8e3c29	-1.111211
146	0xbe3e7c4e	-0.18602106
147	0x3f9c5c44	1.2215657
148	0x3f03dd7e	0.51509845
149	0xbefdf054	-0.49597418
150	0x3f0c01c2	0.5469018
151	0x3f08f13c	0.53493094
152	0x3ea6039d	0.32424632
153	0xbe5d9249	-0.21637835
154	0x3f0b85b5	0.54500896
155	0x3ef513c7	0.4786665
156	0xbe0b69ab	-0.13614528
157	0x3ee32a5c	0.44368255
158	0x3f1eabf9	0.6198116
159	0x3e811e8b	0.25218615
160	0x3e925d00	0.28586578
161	0x3ecd86c5	0.40141883
162	0x3f0e8144	0.55665994
163	0xbdc4662e	-0.09589802
164	0x3e6a2ea8	0.2286936
165	0x3e97cd89	0.29648998
166	0xbc1c3bc7	-0.009535736
167	0x3f01d54a	0.5071608
168	0x3c6567ed	0.014001829
169	0x3eda009e	0.42578596
170	0x3e64ed15	0.22356065
171	0x3d8fd441	0.07022906
172	0x3ea66f40	0.32506752
173	0xbf0df762	-0.554556
174	0x3e293df2	0.16527537
175	0x3f17a1ab	0.5923106
176	0x3a4bbc27	0.00077718723
177	0x3d4a11cd	0.049333382
178	0x3f142601	0.5787049
179	0x3e0c3b62	0.13694528
180	0x3ec33883	0.38129053
181	0x3ec7a050	0.38989496
182	0xbe02abc9	-0.12760843
183	0x3e771d98	0.24132383
184	0xbf261888	-0.6488118
185	0x3d4206bc	0.047369704
186	0x3f082b0a	0.5319067
187	0xbdf53847	-0.11973625
188	0x3e37cb09	0.17948546
189	0x3df9ef55	0.12203852
190	0x3cd4e038	0.025985822
191	0xbeb21961	-0.34784988
192	0x3eebd472	0.4606052
193	0x3ebd122b	0.36927924
194	0x3e1feafe	0.15616986
195	0x3f167319	0.58769375
196	0x3f186bb1	0.59539324
197	0x3f3e915d	0.74440557
198	0x3e47250a	0.19447723
199	0x3ecdd7a3	0.4020358

encoder.lstm.weight_ih_l1 f4 [200, 50]
0	0x3e21d4aa	0.15803781
1	0xbcb9c86a	-0.022678573
2	0xbb7f51f3	-0.0038958758
3	0x3d616c2b	0.055034798
4	0x3cb7d295	0.02243928
5	0x3b1cb1d4	0.0023909705
6	0xbcefe489	-0.029283779
7	0xbd96010e	-0.0732442
8	0xbc9237b1	-0.017848821
9	0x3b975bf4	0.004619116
10	0xbc700ce1	-0.014651508
11	0x3d338fb7	0.04383823
12	0x3d55dbae	0.052211456
13	0xbe62a1e8	-0.22132075
14	0xbd10715a	-0.03526435
15	0x3d84c736	0.06483309
16	0xbcbff620	-0.023432791
17	0x3c28d6ce	0.01030512
18	0xbd16687e	-0.036720745
19	0xbd0a011b	-0.03369246
20	0x3c8d395f	0.01723927
21	0xbc387e29	-0.011260548
22	0xbd299fc0	-0.041412115
23	0xbdf81c51	-0.12114776
24	0xbd22cc2a	-0.039745487
25	0x3cfc7b58	0.030820534
26	0x3d293af0	0.041315973
27	0xbd808f35	-0.062773146
28	0x3e5bfe80	0.21483803
29	0xbcffe204	-0.031235702
30	0x3d6e38ed	0.058159757
31	0xbd3a8b26	-0.04554286
32	0xbb1d4d69	-0.002400244
33	0xbd5c9475	-0.053852517
34	0xbe8ba671	-0.27275422
35	0x3d1216f9	0.03566644
36	0xbd30d95b	-0.043176036
37	0x3d80b54d	0.062845804
38	0x3d96e76a	0.073683575
39	0xbd21e3c0	-0.03952384
40	0xbda90eaa	-0.0825475
41	0x3d64e2e3	0.05588044
42	0xbc75bcab	-0.014998595
43	0xbd670909	-0.0564051
44	0x3d4c0960	0.04981363
45	0xbb1dcc89	-0.0024078211
46	0xbcbe3f48	-0.023223534
47	0x3dd68c9e	0.10476039
48	0xbcb7492f	-0.022373764
49	0x3d49f250	0.049303353
50	0x3d9bd55a	0.07609053
51	0x3cbba350	0.022905022
52	0x3da5a1e1	0.080875166
53	0x3dffeb07	0.12496
54	0x3da1c406	0.07898717
55	0xbd11a57b	-0.035558205
56	0x3d8a5ef5	0.06756393
57	0xbdab630f	-0.08368503
58	0xbc9843a9	-0.01858695
59	0xb881b1eb	-6.184339e-05
60	0x3c437516	0.011929771
61	0xbc16884f	-0.009187772
62	0x3d3674f8	0.044545144
63	0xbeac5498	-0.3365829
64	0x3dfa08b4	0.12208691
65	0xbc8467ff	-0.01616287
66	0x3d29e1dc	0.041475162
67	0x3d707d93	0.058713507
68	0x3c83fc67	0.016111566
69	0x3c1843af	0.009293481
70	0xbdb3a3e4	-0.08771494
71	0x3d25a0f6	0.040436707
72	0xbda51d9f	-0.080622904
73	0xbda81bb3	-0.08208408
74	0x3cb5f360	0.022210777
75	0x3dcc0f9f	0.09963917
76	0x3d4cfbe6	0.050044917
77	0xbce7f796	-0.0283163
78	0x3e177ed3	0.14794473
79	0xbd9ba22d	-0.07599292
80	0xbc9bd91f	-0.01902443
81	0xbe07125e	-0.131906
82	0xbd1d1f0d	-0.03835969
83	0x3c74f3b4	0.0149506815
84	0xbce41e7d	-0.02784657
85	0xbc694395	-0.014237304
86	0xbe0dacd1	-0.13835455
87	0xbcb983c2	-0.022645835
88	0xbd627599	-0.05528793
89	0xbd255505	-0.040364284
90	0xbe0970e5	-0.13421972
91	0xba8a56fd	-0.0010554489
92	0x3d9c8e05	0.076442756
93	0x3ce3d69c	0.027812295
94	0x3dd1e050	0.10247862
95	0xbd966d5f	-0.0734508
96	0x3c907e30	0.017638296
97	0xbda18108	-0.07885939
98	0x3d0a3680	0.03374338
99	0xbdf8f452	-0.121559754
100	0xbe30be2c	-0.17260045
101	0x3de0a3c9	0.109687395
102	0xbe4a31fe	-0.19745633
103	0x3d33c8e7	0.043892767
104	0xbd084d75	-0.033276994
105	0x3d211741	0.039328817
106	0xbb4e626a	-0.0031491765
107	0xbc1cb0ac	-0.009563606
108	0xbca18f2f	-0.019721596
109	0xbc138edf	-0.009006231
110	0xbd5d8a3b	-0.054086905
111	0x3bc99b37	0.0061525363
112	0x3dceb3a2	0.10092856
113	0xbe789773	-0.24276523
114	0xbcc2bbc4	-0.023771174
115	0xbe90feaf	-0.28319308
116	0x3dfbd76e	0.12296949
117	0xbc81c551	-0.015841158
118	0xbd772f5f	-0.06034791
119	0x3e076826	0.13223323
120	0xbd632c09	-0.055461917
121	0xbca19548	-0.019724503
122	0xbcb2d616	-0.0218306
123	0xbe8cddf8	-0.275131
124	0x3d352276	0.044222318
125	0x3c6ce4fd	0.014458892
126	0xbd0306f4	-0.031989053
127	0x3d8500ea	0.06494315
128	0x3ea01bbb	0.31271157
129	0xbde20e74	-0.11037913
130	0x3da391f6	0.07986824
131	0x3d6c79d4	0.05773337
132	0x3ce3f67c	0.027827494
133	0x3bba4091	0.0056839664
134	0xbe0bbeb7	-0.1364697
135	0x3cf783f0	0.03021428
136	0xbe5565c8	-0.20839608
137	0x3c76cb79	0.01506316
138	0x3d49c08e	0.0492559
139	0xbcdca5ab	-0.026934465
140	0xbd926d0d	-0.07149706
141	0xbdab9307	-0.083776526
142	0xbe1cebc2	-0.1532431
143	0x3cad0860	0.021122158
144	0xbd17c74e	-0.037055306
145	0xbcebca49	-0.02878298
146	0x3cc407fd	0.02392959
147	0x3d8055e8	0.06266385
148	0x3cf13f9b	0.029449275
149	0xbdeac6df	-0.11463713
150	0xbe27ba4a	-0.16379657
151	0x3d4f2dd0	0.0505808
152	0xbd546b1e	-0.051859967
153	0x3e17cf21	0.14825107
154	0xbb0c1338	-0.002137376
155	0xbc5d15ea	-0.013493994
156	0x3d86a363	0.06574132
157	0xbd22d6d1	-0.039755646
158	0xbd04740d	-0.032337237
159	0x3c9609ff	0.018315313
160	0x3d14ec48	0.036358148
161	0x3d4c17ad	0.049827266
162	0x3dbfb3bd	0.09360454
163	0xbebd665c	-0.36992157
164	0xbb8f0e05	-0.004365685
165	0xbb49180f	-0.0030684506
166	0x3d487e3a	0.048948504
167	0x3dc1a317	0.09454935
168	0x3ba12a23	0.004918353
169	0xbdcc5bef	-0.099784724
170	0x3bf8ff6f	0.0075988094
171	0x3d69eaae	0.057108574
172	0x3da51753	0.08061089
173	0xbe9ab705	-0.30217758
174	0xbc35e62a	-0.011102239
175	0x3d8567ce	0.0651394
176	0x3e549aa0	0.2076211
177	0x3dbdf565	0.09275321
178	0x3ee2f219	0.4432533
179	0xbcc21686	-0.02369238
180	0xbca234bc	-0.019800536
181	0xbde6b9cb	-0.11265906
182	0xbc94b076	-0.01815055
183	0x3b5921c6	0.0033131703
184	0xbe8f9308	-0.28041863
185	0xbcebf030	-0.028801054
186	0xbe434b0d	-0.19071598
187	0xbc74189e	-0.014898447
188	0x3c3f2c0a	0.011668215
189	0xbd8b22b0	-0.067937255
190	0xbe14c07c	-0.14526552
191	0x3ca2b164	0.019859977
192	0x3b9bcd0e	0.004754669
193	0x3a584389	0.00082498096
194	0xbd795377	-0.060870614
195	0x3c17cdfb	0.009265418
196	0xbcf0a672	-0.029376242
197	0x3e165dc3	0.14684205
198	0xbcad84cb	-0.021181485
199	0xbda970e1	-0.08273483
200	0xbdf8bba8	-0.121451676
201	0x3daef674	0.08543101
202	0xbe145235	-0.14484484
203	0x3ddb0110	0.10693562
204	0xbc8a1d85	-0.01685978
205	0x3d436486	0.04770329
206	0xbdb9f1fd	-0.09079359
207	0xbcec2fbe	-0.028831359
208	0xbdc04edc	-0.09390041
209	0xbd40d581	-0.047078613
210	0xbd5f5fe0	-0.054534793
211	0x3e3f619d	0.1868958
212	0xbc86a8c7	-0.016437901
213	0xbe3b574c	-0.1829502
214	0xbc6153eb	-0.013752918
215	0xbd49528f	-0.049151
216	0xbd119873	-0.035545778
217	0x3ca75699	0.020427035
218	0xbd803409	-0.06259925
219	0x3cd34282	0.02578855
220	0x3cab0326	0.020875525
221	0xbb86322b	-0.004095336
222	0x3d19c052	0.037536927
223	0xbe4904ce	-0.19630739
224	0xbd7401cc	-0.059572026
225	0x3d5327d9	0.051551674
226	0x3e69e9b3	0.22843055
227	0x3d9a1895	0.0752422
228	0x3e7b384c	0.24533194
229	0x3d928dab	0.07155927
230	0x3e2b1018	0.16705358
231	0x3d072fc2	0.03300453
232	0x3d0bc770	0.034125745
233	0xbd007c07	-0.03136828
234	0xbd998935	-0.07496873
235	0xbd32ab8c	-0.04362063
236	0xbe18183a	-0.14852992
237	0x3cb4acfa	0.022055138
238	0x3b93fde6	0.004516351
239	0x3d2aeba3	0.041728627
240	0xbe09ba6d	-0.13450022
241	0x3d906004	0.070495635
242	0x3dcf48c7	0.10121303
243	0xbd3342b9	-0.043764804
244	0x3d0d3c55	0.034481365
245	0xbce1ff03	-0.02758742
246	0xbd5e7f4e	-0.054320626
247	0x3d6ab46b	0.057300966
248	0xbda916f1	-0.08256329
249	0xbc842280	-0.016129732
250	0xbdb51cf3	-0.08843412
251	0xbabedc36	-0.0014561478
252	0xbe0ad3f6	-0.13557419
253	0x3d07734b	0.033068936
254	0x3dd6ff9f	0.104979746
255	0x3d90d6f4	0.07072249

encoder.lstm.weight_hh_l1 f4 [200, 50]
0	0x3d62e5aa	0.055394806
1	0xbcdf689b	-0.02727156
2	0xbd04710a	-0.032334365
3	0x3c1f086a	0.009706596
4	0x3cbc2b74	0.022969939
5	0xbdcef11e	-0.10104583
6	0x3d3d427e	0.04620599
7	0xbccffa9c	-0.025388055
8	0x3b1050eb	0.0022020887
9	0xbd6aba2c	-0.057306454
10	0x3cc744a9	0.024324732
11	0x3da602ab	0.081059776
12	0x3be5424d	0.006996429
13	0xba8e1e05	-0.0010842687
14	0xbe2fec24	-0.17179924
15	0xbd4e6c88	-0.050396472
16	0xbe265d9f	-0.16246651
17	0xbd13103f	-0.035904165
18	0x3dfa23ed	0.122138835
19	0x3d71c588	0.05902627
20	0x3e04af81	0.12957574
21	0x3d53eb16	0.051737867
22	0xbdb394ee	-0.087686405
23	0x3b9729c5	0.0046131336
24	0x3d985b20	0.07439256
25	0xbd953cde	-0.07287
26	0xbccbd41e	-0.024881419
27	0xbd5cff97	-0.053954687
28	0xbd19b0e6	-0.03752222
29	0xbdb25a3c	-0.08708617
30	0x3d6fe145	0.058564443
31	0x3d94d206	0.07266621
32	0xbcefe6d3	-0.02928487
33	0x3e06c0f5	0.13159545
34	0x3d5b2afd	0.053507794
35	0xba1da030	-0.00060129445
36	0x3caba8b1	0.020954462
37	0xbd8d7b67	-0.06908303
38	0xbd9c07b3	-0.07618656
39	0xbcbb5736	-0.022868734
40	0x3e027de8	0.12743342
41	0x3de3f0f0	0.111299396
42	0x3d8163e5	0.063178815
43	0x3d186701	0.037207607
44	0x3d040db9	0.03223965
45	0x3db95e2f	0.09051167
46	0xbd901265	-0.070347585
47	0xbe21fde7	-0.15819512
48	0xbd98bf44	-0.07458356
49	0xbde6f53a	-0.11277242
50	0xbb3f8f6a	-0.0029229769
51	0x3d9a32b6	0.075292036
52	0x3d47f773	0.04881997
53	0x3cfbfda9	0.030760603
54	0xbd3e2963	-0.04642619
55	0x3c3c0062	0.011474701
56	0x3caedb66	0.021344852
57	0x3c2c1c5b	0.010504807
58	0xbcd4e262	-0.025986854
59	0x3c4f5b5f	0.012656062
60	0x3d4cf847	0.050041463
61	0xbcfa2cf8	-0.03053902
62	0xbccfa741	-0.025348308
63	0x3c80d60a	0.015727062
64	0xbd8f8e25	-0.07009534
65	0x3d2e3746	0.04253318
66	0xbe863ddc	-0.2621907
67	0xbcd44c9e	-0.02591544
68	0x3e121ca6	0.14268741
69	0xbbb4eeca	-0.00552163
70	0xbd3df01c	-0.046371564
71	0x3ce14085	0.027496586
72	0xbdd3749d	-0.103249766
73	0x3c868d4b	0.016424796
74	0xbd4baf79	-0.04972789
75	0xbd94faf3	-0.07274427
76	0xbc8ba2af	-0.017045347
77	0xbd991fd1	-0.074767716
78	0x3d119b32	0.035548396
79	0x3d676f2e	0.056502514
80	0x3c60163c	0.013677176
81	0x3d1043b0	0.0352208
82	0x3c4b49ab	0.0124077005
83	0xbd8d7d11	-0.0690862
84	0x3d7a5031	0.061111633
85	0xbc8bff9d	-0.01708966
86	0xbd2b32ea	-0.041796602
87	0x3cd9cda0	0.026587307
88	0x3ce49f8e	0.027908113
89	0xbc1f9198	-0.009739302
90	0xbda3bda6	-0.07995157
91	0x3e08e31c	0.13367885
92	0xbc9f433c	-0.01944124
93	0xbbe47021	-0.0069713746
94	0x3cef6c5c	0.029226474
95	0x3d767f91	0.06018025
96	0xbd7eb133	-0.06218071
97	0xbd4cd2f7	-0.05000588
98	0xbc94f09b	-0.018181136
99	0x3daba156	0.08380382
100	0x3db692dc	0.0891473
101	0x3dab2db3	0.08358326
102	0x3d27a043	0.04092432
103	0x3daf95a8	0.085734665
104	0x3e113a98	0.14182508
105	0xbe2e4a5f	-0.17020558
106	0x3d37f748	0.04491356
107	0x3b483fbe	0.0030555571
108	0x3d751ad0	0.059840024
109	0x3d2d5d2e	0.04232519
110	0x3d1b54b9	0.037922595
111	0x3ccb42f7	0.024812205
112	0x3d8cd2e2	0.0687616
113	0x3c8a2f44	0.016868241
114	0xbe22d6c0	-0.15902233
115	0x3ca4ba9b	0.020108512
116	0xbe8eb5e0	-0.27873135
117	0x3c18d399	0.009327793
118	0xbd13ceb6	-0.036085807
119	0x3dd4d65f	0.103924505
120	0x3dfe4838	0.124161184
121	0x3d00dd8f	0.031461295
122	0xbd006012	-0.03134162
123	0x3d4ce966	0.050027274
124	0x3cdfdf10	0.027328044
125	0xbdcf7bce	-0.10131036
126	0xbb288cb0	-0.0025718622
127	0xbda6f156	-0.081515
128	0x3ced49f5	0.02896593
129	0xbcf8942f	-0.030344097
130	0xbbc6a76c	-0.0060624387
131	0xbc843459	-0.016138243
132	0x3d6c1e00	0.057645798
133	0x3d93ad07	0.07210737
134	0x3da82aee	0.08211313
135	0xbd39ee65	-0.045393366
136	0x3d1ff5e0	0.039052844
137	0xbd2df3ba	-0.042468764
138	0x3b59bf06	0.003322543
139	0xbde3e8e3	-0.11128404
140	0x3e4e9b6f	0.2017648
141	0xbd71baea	-0.059016146
142	0x3d3505ab	0.04419486
143	0x3d3746bc	0.044745192
144	0x3db47948	0.08812195
145	0x3d4a28a1	0.049355153
146	0xbdea6c39	-0.11446423
147	0xbd9678f3	-0.07347288
148	0xbd8c7193	-0.068576
149	0xbd40bbe7	-0.047054198
150	0xbb24d9bd	-0.0025154196
151	0x3bd01fab	0.0063514314
152	0xbd9d083e	-0.07667588
153	0x3c998625	0.018740723
154	0x3d8e1f91	0.069396146
155	0xbdac2b5e	-0.08406709
156	0xba98cdb6	-0.0011657986
157	0xbd276399	-0.040866468
158	0x3baec7e7	0.005333889
159	0xbcf62524	-0.030047007
160	0xbd723e50	-0.059141457
161	0xbcbd040d	-0.02307322
162	0xbd10b740	-0.03533101
163	0xbb7106d8	-0.003677776
164	0xbde8f544	-0.11374906
165	0xbd465ead	-0.048430134
166	0xbe83054e	-0.25589985
167	0xbc5b9ec3	-0.013404551
168	0x3dc07d96	0.093989536
169	0xbd0ea2a5	-0.03482308
170	0x3e2153dd	0.15754648
171	0x3d4f8aff	0.050669666
172	0xbdb424e5	-0.087960996
173	0xbc9b17b2	-0.018932197
174	0x3e20ca4f	0.15702175
175	0xbd1fcc66	-0.03901329
176	0xbbc38751	-0.0059670587
177	0xbdb83f2a	-0.089964226
178	0x3da0e765	0.07856635
179	0xbc0cac15	-0.008585949
180	0x3d3c9be6	0.046047114
181	0xbdb7e62b	-0.08979448
182	0xbd587592	-0.0528465
183	0x3cab58b5	0.020916322
184	0x3d91004c	0.07080135
185	0x3e2850cf	0.16437076
186	0x3d30526a	0.043047346
187	0xbda52dd3	-0.08065381
188	0xbca5e800	-0.020252228
189	0xbd4de565	-0.050267596
190	0x3d4c19ef	0.04982942
191	0x3e161e09	0.14659895
192	0x3dd7f9fc	0.105457276
193	0x3c438f43	0.011936012
194	0x3d23f8d9	0.04003224
195	0x3d77b9cf	0.060479935
196	0xba40c28e	-0.00073532097
197	0xbd2cbefd	-0.042174328
198	0xbd80c181	-0.06286908
199	0x3c4eecb9	0.012629681
200	0x3d413361	0.04716814
201	0xbcb05b43	-0.021527892
202	0xbb9a308e	-0.004705495
203	0xbcd338c7	-0.02578391
204	0x3c8d7eaa	0.017272312
205	0xbd695c6f	-0.056972917
206	0x3d377e9b	0.044798475
207	0xbc210d0e	-0.009829773
208	0x3dd19074	0.1023263
209	0xbd67f6da	-0.0566319
210	0xbd8696c7	-0.06571727
211	0x3d4f2893	0.050575804
212	0x3d58547d	0.05281495
213	0x3d5f590d	0.054528285
214	0xbe40af89	-0.18816961
215	0xbe0ef3c4	-0.13960177
216	0xbd4598b9	-0.04824135
217	0xbc6ad582	-0.014333131
218	0x3c8c466d	0.017123425
219	0x3daf9167	0.08572655
220	0x3e060cb4	0.13090783
221	0x3dd6b1e3	0.10483148
222	0xbdb8df0f	-0.0902692
223	0xbb245670	-0.0025075935
224	0x3e1c9ac2	0.1529341
225	0xbd3e19ba	-0.046411254
226	0xbe2b47af	-0.16726564
227	0xbd281bae	-0.041042022
228	0xbd00b8d8	-0.03142628
229	0x3d51ee96	0.051252924
230	0x3c9ac107	0.01889087
231	0xbcaf8523	-0.02142579
232	0x3bf503d7	0.0074772644
233	0x3d9de90e	0.07710467
234	0x3dd524f7	0.10407441
235	0x3d0825c9	0.03323916
236	0x3c949c7c	0.018141024
237	0xbdbb1ec2	-0.09136726
238	0xbc41e1e4	-0.011833642
239	0x3e467b80	0.19383049
240	0x3e41772b	0.18893115
241	0xbe10b432	-0.14131239
242	0x3d58eb09	0.052958522
243	0x3d88df49	0.06683213
244	0x3e049dfd	0.12950893
245	0x3d3b9e99	0.045805547
246	0x3c5e5f7d	0.013572571
247	0xbdcd923d	-0.10037658
248	0x3b7481a9	0.0037308729
249	0x3c61241a	0.013741517
250	0x3d844fc0	0.064605236
251	0xbd5729a8	-0.05252996
252	0x3dd34fd4	0.103179604
253	0x3d804858	0.062637985
254	0xbd9c82e3	-0.07642152
255	0x3e01313f	0.12616442

encoder.lstm.bias_ih_l1 f4 [200]
0	0x3d48449c	0.048893556
1	0x3dc93ec7	0.09826427
2	0x3c93c62d	0.018038834
3	0x3d8f2304	0.069891006
4	0x3d97c37a	0.07410331
5	0x3dc99e8d	0.09844694
6	0x3da8ba68	0.08238679
7	0x3e18b60a	0.14913192
8	0xbd5b9856	-0.053612076
9	0x3d725323	0.059161317
10	0x3e26f2dc	0.16303581
11	0x3e0ffa00	0.14060211
12	0x3e095385	0.13410766
13	0x3e038296	0.12842783
14	0x3e37aee6	0.17937812
15	0x3e08a297	0.13343273
16	0x3e36db90	0.17857194
17	0x3dec295f	0.115313284
18	0x3c3d42bb	0.011551554
19	0x3cf78305	0.030213842
20	0x3df695c4	0.12040284
21	0x3d8286b0	0.06373346
22	0x3d5d7688	0.05406812
23	0x3d9c793c	0.07640311
24	0x3d62bb43	0.055354368
25	0x3cfd37f0	0.030910462
26	0x3d90424c	0.07043895
27	0x3da4f391	0.08054269
28	0x3d9fd897	0.07804983
29	0x3d6cc83e	0.057808153
30	0x3d95b02f	0.07308995
31	0x3e01ac71	0.12663437
32	0x3dbc532d	0.09195552
33	0x3e0f2140	0.13977528
34	0x3d9c85bd	0.07642696
35	0x3e1addf9	0.15123738
36	0x3dc7f0f7	0.09762757
37	0x3d3c16f8	0.045920342
38	0xbc44d397	-0.012013338
39	0xbd47da9f	-0.048792478
40	0x3d6afd0a	0.057370223
41	0x3d9fd724	0.07804707
42	0xbca3863b	-0.019961467
43	0x3e1ec00e	0.1550295
44	0x3d1bcd66	0.03803768
45	0x3dc155cc	0.094401926
46	0x3dd78482	0.10523321
47	0x3dbb6b34	0.09151307
48	0x3ddd49b7	0.108050756
49	0x3d62bc5b	0.05535541
50	0xbd57560f	-0.052572306
51	0xbdb580e1	-0.08862472
52	0xbd0a0734	-0.033698276
53	0xbcaf26b8	-0.021380767
54	0xbdd4a161	-0.10382343
55	0xbe915476	-0.2838475
56	0xbe03f74a	-0.12887302
57	0xbd836d2b	-0.064173065
58	0xbd31eff0	-0.043441713
59	0xbc10eab4	-0.00884502
60	0xbec488e6	-0.38385695
61	0xbdbb9402	-0.091590896
62	0xbd8fb3bc	-0.070167035
63	0xbdc39dd5	-0.095515884
64	0xbd3f5ab3	-0.046717357
65	0xbdc72af9	-0.09724993
66	0xbdbab47a	-0.091164544
67	0xbddce2c5	-0.1078544
68	0xbc6aafbe	-0.014324127
69	0xbd8a1b3f	-0.06743478
70	0xbd8a573a	-0.067549184
71	0xbdaaed8d	-0.083460905
72	0xbd2de8e0	-0.042458415
73	0xbd97b4c8	-0.07407528
74	0xbea99260	-0.33119488
75	0xbd4ea8a9	-0.050453816
76	0xbd585180	-0.0528121
77	0xbd309c62	-0.04311789
78	0xbdc283fb	-0.094978295
79	0xbe87a08e	-0.2648968
80	0xbdb5cc39	-0.08876843
81	0xbe81f379	-0.25381067
82	0xbdcb260a	-0.09919365
83	0xbd876dbf	-0.06612729
84	0xbd6daf82	-0.058028705
85	0xbeba4bbf	-0.36385915
86	0xbd6f45f2	-0.058416314
87	0xbe67dfae	-0.22643921
88	0xbc040369	-0.008057454
89	0xbd1be1a5	-0.03805699
90	0xbdb8a099	-0.090150066
91	0xbd5c8557	-0.0538381
92	0xbd3bfd55	-0.045895893
93	0xbe8aab17	-0.27083656
94	0xbd874000	-0.06604004
95	0xbd13de39	-0.0361006
96	0xbd481078	-0.04884383
97	0xbd95641f	-0.07294487
98	0xbddef253	-0.108860634
99	0xbdc5fa7b	-0.09666916
100	0xbbc99d9e	-0.0061528226
101	0x3cb1697c	0.021656744
102	0x3d348346	0.044070505
103	0xbd01dbae	-0.031703644
104	0xbe286855	-0.1644605
105	0xbdb10ab7	-0.08644622
106	0x3d0da38f	0.03457981
107	0xbe13cefc	-0.14434427
108	0x3b7ad35c	0.0038272953
109	0xbc84344d	-0.01613822
110	0xbd87658b	-0.06611165
111	0x3e2e56bd	0.17025276
112	0x3e0a2e52	0.13494232
113	0x3e0db04c	0.13836783
114	0xbe0859f9	-0.13315572
115	0xbe4c027f	-0.19922827
116	0xbe9c6766	-0.30547637
117	0xbb82b9b1	-0.0039894213
118	0x3d9701b8	0.07373375
119	0xbd0fac92	-0.035076685
120	0x3c456753	0.01204856
121	0xbdb3dd43	-0.08782437
122	0xbe2c2e67	-0.16814576
123	0xbdb04f2b	-0.0860885
124	0xbe05d559	-0.13069667
125	0xbd9c6faf	-0.076384895
126	0xbe1e550e	-0.15462133
127	0xbd7abd72	-0.061215825
128	0x3ac6ce5d	0.0015167702
129	0x3e193f09	0.14965452
130	0x3da64d45	0.08120207
131	0xbd6cfec9	-0.05786017
132	0xbbd89437	-0.0066094655
133	0x3dacddbf	0.08440732
134	0x3ddd66cd	0.10810623
135	0x3c810dae	0.015753593
136	0x3db91502	0.0903721
137	0xbc3f4341	-0.011673749
138	0x3daba541	0.08381129
139	0x3d13fd02	0.03612996
140	0xbe09f2c9	-0.13471521
141	0x3df1fbe5	0.11815623
142	0xbe2b7223	-0.16742758
143	0xbe048b6d	-0.12943812
144	0x3dbfac64	0.09359053
145	0x3c5af1ea	0.013363341
146	0x3def1903	0.116746925
147	0xbe179068	-0.1480118
148	0xbc12a7db	-0.008951153
149	0x3ddc7b39	0.1076569
150	0xbdd0c426	-0.10193662
151	0x3dcd70a3	0.100312494
152	0x3d699b14	0.05703266
153	0x3d8090c4	0.06277612
154	0x3d9de4ba	0.07709642
155	0x3dbbf7e8	0.09178144
156	0x3d1d7d58	0.038449615
157	0x3e0cb81c	0.13742107
158	0xbdaf4638	-0.08558315
159	0xbc2d790c	-0.010587942
160	0x3e77cc95	0.24199136
161	0x3e073a3a	0.13205805
162	0x3e04cacc	0.12967986
163	0x3df22608	0.1182366
164	0x3e411019	0.18853797
165	0x3e05d21c	0.13068432
166	0x3dce01b4	0.100589186
167	0x3ded3d5b	0.11583968
168	0xbcc80366	-0.024415683
169	0xbd90941f	-0.07059502
170	0x3e41689a	0.18887559
171	0x3ca6756c	0.020319663
172	0x3bacc549	0.0052725417
173	0x3d984db0	0.07436693
174	0x3e01d201	0.12677766
175	0xbd174def	-0.036939558
176	0xbdadb433	-0.08481636
177	0x3dca00d0	0.09863436
178	0x3ccb6f35	0.024833301
179	0x3d3a2202	0.04544259
180	0x3d7a5002	0.061111458
181	0x3e407f60	0.1879859
182	0x3d502949	0.050820623
183	0x3e0ab1cb	0.13544385
184	0x3d57fdca	0.052732266
185	0x3e792d4a	0.24333683
186	0x3d90b1c3	0.07065155
187	0x3e5b4fac	0.21417111
188	0xbcddb822	-0.02706534
189	0x3c758ef8	0.0149877
190	0x3de01a52	0.1094252
191	0x3d457093	0.048203062
192	0xbdaee351	-0.08539451
193	0x3dbe35e0	0.092876196
194	0xbd7be2ab	-0.061495464
195	0x3e1d221c	0.15345043
196	0x3d92e43b	0.07172438
197	0x3d9ee62c	0.077587456
198	0x3dd68ed4	0.10476461
199	0x3e22ef75	0.15911658

encoder.lstm.bias_hh_l1 f4 [200]
0	0x3dbd4428	0.092415154
1	0x3dc93cda	0.0982606
2	0xbc34fb4e	-0.011046244
3	0x3d8f68c4	0.07002404
4	0x3dc0840a	0.094001845
5	0x3dbaf42d	0.09128604
6	0x3da8ba1d	0.08238623
7	0x3e18b60a	0.14913192
8	0xbdf872c6	-0.12131266
9	0xbccd618e	-0.025070932
10	0x3dfd9c4b	0.12383326
11	0x3e0ffa00	0.14060211
12	0x3e095385	0.13410766
13	0x3e038296	0.12842783
14	0x3de17557	0.11008709
15	0x3e08a297	0.13343273
16	0x3e34aaeb	0.17643325
17	0x3dec295f	0.115313284
18	0x39bc31ce	0.00035895262
19	0x3cf6d5d6	0.030131262
20	0x3d2e5f4c	0.04257135
21	0x3d822a82	0.06355764
22	0x3d82684d	0.0636755
23	0x3d9c793c	0.07640311
24	0x3cdc236c	0.02687236
25	0x3d2a0c4d	0.041515637
26	0x3d9136ab	0.07090505
27	0x3da62638	0.081127584
28	0x3d9fd897	0.07804983
29	0xbbb5edfc	-0.0055520516
30	0x3d95b02f	0.07308995
31	0x3df12b9b	0.11775895
32	0x3dbc532d	0.09195552
33	0x3e0f2140	0.13977528
34	0x3da731eb	0.08163818
35	0x3e080848	0.13284409
36	0x3dc7f0f7	0.09762757
37	0x3e0e137f	0.13874625
38	0xbc465e06	-0.012107378
39	0x3cf706b2	0.03015456
40	0x3d95416b	0.07287868
41	0x3de8c28a	0.113652304
42	0x3ccd4885	0.025058994
43	0x3e1ec00e	0.1550295
44	0x3d1a4765	0.037665743
45	0x3dbccf5c	0.09219238
46	0x3d359823	0.044334542
47	0x3dbe0731	0.092787154
48	0x3ddd49b8	0.10805076
49	0x3d36600d	0.044525195
50	0xbd43e674	-0.0478272
51	0xbdb580e1	-0.08862472
52	0xbdd1d3c2	-0.10245468
53	0xbcaf26b0	-0.021380752
54	0xbdcffb1e	-0.10155319
55	0xbe839fb6	-0.25707787
56	0xbe040ff1	-0.12896706
57	0xbd836d2b	-0.064173065
58	0xbd35851f	-0.044316407
59	0xbd96ea13	-0.07368865
60	0xbec05b54	-0.37569678
61	0xbdbb9264	-0.09158781
62	0xbd8fb3bc	-0.070167035
63	0xbdc39dac	-0.09551558
64	0xbd627674	-0.055288747
65	0xbdc72afa	-0.09724994
66	0xbd9838a4	-0.07432678
67	0xbddce2c3	-0.10785439
68	0xbcba27f9	-0.022724139
69	0xbd8a1b3f	-0.06743478
70	0xbdb1fc74	-0.0869073
71	0xbdaaed8d	-0.083460905
72	0xbd2e7080	-0.042587757
73	0xbd97b4c8	-0.07407528
74	0xbea9910a	-0.3311847
75	0xbd4ea8ee	-0.050454073
76	0xbd56e1e9	-0.05246154
77	0xbd309c62	-0.04311789
78	0xbdc28797	-0.09498518
79	0xbe89894c	-0.26862562
80	0xbdb5cc37	-0.088768415
81	0xbe85e8ff	-0.26154324
82	0xbdcb260b	-0.099193655
83	0xbd872eca	-0.06600721
84	0xbd6da360	-0.058017135
85	0xbea270cb	-0.3172668
86	0xbd6f2b52	-0.058390923
87	0xbe716a8a	-0.23575798
88	0xbc040369	-0.008057454
89	0xbd151871	-0.036400262
90	0xbdb44e89	-0.08804042
91	0xbd8c8ad7	-0.06862419
92	0xbd3d751d	-0.046254266
93	0xbe8aaad4	-0.27083457
94	0xbd874000	-0.06604004
95	0xbcfeb512	-0.0310922
96	0xbd3a23b9	-0.045444224
97	0xbd8f5b6c	-0.06999859
98	0xbddef108	-0.10885817
99	0xbdd1e3da	-0.10248537
100	0xbc6a4418	-0.014298461
101	0xbd8bc4ca	-0.06824644
102	0xbb551db2	-0.003251892
103	0xbd851775	-0.06498615
104	0xbd0a1fed	-0.033721853
105	0x3d1aefa6	0.037826203
106	0xbba57d9c	-0.005050374
107	0xbde8693d	-0.113481976
108	0xbdf53b6e	-0.11974226
109	0x3d3cf074	0.04612775
110	0xbda58fdd	-0.0808408
111	0x3e5b4e82	0.21416667
112	0x3c07120f	0.008244052
113	0x3e340f94	0.17584068
114	0xbe3946be	-0.18093392
115	0xbe0030f5	-0.12518676
116	0xbe70bc13	-0.23509245
117	0x3c9b439b	0.018953135
118	0x3e1675cf	0.14693378
119	0xbc8cd671	-0.017192097
120	0xbbc63090	-0.0060482696
121	0xbd83c0a6	-0.06433229
122	0xbe20541e	-0.15657088
123	0x3d54410c	0.051819846
124	0xbd41ed8a	-0.047345676
125	0xbd577ff0	-0.052612245
126	0xbe118886	-0.14212236
127	0xbc9135a4	-0.017725773
128	0xbda6a7be	-0.08137463
129	0x3dd5260f	0.1040765
130	0x3dd21e4e	0.102596864
131	0xbd841697	-0.06449621
132	0xbe2c4c7a	-0.16826048
133	0x3deb3a11	0.11485685
134	0x3b37c101	0.0028038623
135	0x3d2fecfa	0.042950608
136	0x3e80bd75	0.25144544
137	0xbd541851	-0.051781002
138	0xbb0952dc	-0.002095393
139	0x3d709934	0.058739856
140	0x3ccba03e	0.024856683
141	0x3df1e021	0.11810327
142	0xbe2c08c3	-0.16800217
143	0xbe21c1c3	-0.1579657
144	0x3e0272c9	0.127391
145	0x3db53a9b	0.08849069
146	0x3d5b896f	0.053597864
147	0xbe2320a9	-0.15930428
148	0xbd1c89d7	-0.03821739
149	0x3c955d2c	0.018232904
150	0xbdbb4437	-0.0914387
151	0x3dcd70a3	0.100312494
152	0x3d9917cf	0.07475244
153	0x3d8057a2	0.06266715
154	0x3e0f8afa	0.14017859
155	0x3dcad8c9	0.0990463
156	0x3d1d7d58	0.038449615
157	0x3e0cb81c	0.13742107
158	0xbdc6298a	-0.09675892
159	0x3bfe517b	0.007761178
160	0x3e93a37b	0.28835663
161	0x3e073a3a	0.13205805
162	0x3e04cacc	0.12967986
163	0x3df22608	0.1182366
164	0x3e478c63	0.19487147
165	0x3e05d21c	0.13068432
166	0x3dce0d63	0.10061147
167	0x3ded3d5b	0.11583968
168	0xbc72826b	-0.014801602
169	0xbd90941f	-0.07059502
170	0x3e36addc	0.1783976
171	0x3ca6756c	0.020319663
172	0x3bf22c05	0.0073905014
173	0x3d984db0	0.07436693
174	0x3e1318ef	0.1436498
175	0xbd171b38	-0.036891192
176	0xbdae0c83	-0.0849848
177	0x3dca00d0	0.09863436
178	0x3ccb6f35	0.024833301
179	0x3d9d9693	0.076947354
180	0x3d7a5002	0.061111458
181	0x3e32996d	0.1744134
182	0x3d502949	0.050820623
183	0x3e0ab1cb	0.13544385
184	0x3d57fddb	0.05273233
185	0x3e792f75	0.2433451
186	0x3d90b1c3	0.07065155
187	0x3e5fa3c5	0.21839817
188	0xbcddb7f7	-0.02706526
189	0x3d343e7d	0.044004906
190	0x3d9fe020	0.0780642
191	0x3d34aca7	0.044109967
192	0xbd87f181	-0.0663786
193	0x3dbe35e0	0.092876196
194	0xbd7be2ab	-0.061495464
195	0x3e166cfd	0.14690013
196	0x3d3eaaf9	0.04654977
197	0x3d9ee9e3	0.07759454
198	0x3dd68ed4	0.10476461
199	0x3e251d35	0.16124423
