LSTMAutoEncoder/LSTM_20240610_005340_best.pth (torch, 677072 bytes, 16 tensors)

encoder.weight_ih_l0 f4 [400, 38]
-0.12364162 0.05819366 -0.052327722 -0.1993144 0.10024749 0.055097472 0.09914319 0.01913612
0.043739457 0.0013386924 -0.16359857 0.01851753 0.08575877 0.08064153 -0.0131086 -0.035931572
0.12724592 0.10356706 -0.001125058 -0.0006978477 -0.017101765 0.030040473 0.041671075 0.0057869987
0.053948402 0.19805822 -0.0074240067 0.09021308 0.00506603 -0.061283585 -0.07390051 0.12425773
-0.08959371 0.011585849 0.011189542 0.03629907 -0.15876631 -0.011724317 -0.13224281 -0.0826253
0.14537342 -0.30788046 -0.07179158 -0.18192697 -0.1421595 0.006740346 -0.033763617 -0.037312344
-0.009334693 -0.36265385 -0.2130856 -0.059635792 -0.18532193 -0.052036434 -0.19153695 -0.21667999
-0.113561794 -0.14755298 -0.12544498 -0.14452757 -0.14287856 -0.18472284 -0.2248856 -0.18699692
-0.09186528 -0.08088067 -0.07525886 -0.08578163 -0.20512728 -0.21682358 0.012063587 -0.05074374
-0.1257688 0.076976724 -0.08220085 -0.14703181 0.073167615 0.029395454 0.07106755 0.11990351
0.0994576 0.05545164 0.033763424 0.02460877 0.05947072 0.06324308 -0.095426895 0.03842216
-0.0680183 0.026992561 -0.093698 0.07075083 -0.017968157 0.085331134 -0.008520795 0.0045827446
0.0011167736 0.038865894 -0.017593592 0.15436856 -0.06584691 0.13946572 -0.027010906 0.11310201
0.13056663 0.14235273 0.028380454 0.13413051 -0.061727658 0.070139356 0.12235145 0.069001876
-0.08000139 -0.00082980416 0.2623526 0.13244742 0.022122143 0.09250507 0.15785635 0.23273982
0.15015021 0.26271552 0.28297764 0.19663396 0.16564728 0.23181579 0.25003397 0.17441462
0.089068554 0.17645757 0.20981629 0.06998553 0.19225958 0.20145652 0.2767004 0.18822208
0.12149169 0.17279902 0.28776222 0.22282109 0.17865153 0.1463122 0.19110869 0.03878679
0.22571497 0.13418442 0.14672281 0.12959866 0.24632524 0.28103954 0.27103728 0.31320816
-0.030021992 0.042105284 0.049232047 0.0061500976 0.08182309 0.08441661 0.018775119 0.17130093
-0.025248967 0.042522147 0.002497866 0.07162096 -0.10766147 0.16290754 -0.07946808 0.1891234
-0.13968618 -0.06362658 0.06981383 -0.013830752 0.042744126 0.11237021 0.063434705 -0.016827943
0.0066777 0.14535968 -0.101390176 -0.01879759 -0.00809489 0.011283342 -0.033505067 0.020506067
-0.07034908 -0.011863112 -0.027354073 -0.03841224 0.07740502 0.001976316 0.034556862 0.07055341
-0.045962747 -0.025409862 0.11186595 0.047322847 0.11414761 0.13883056 0.1135007 0.17330432
0.1275565 0.13682121 0.09608074 0.06370178 0.0059765615 -0.03069413 0.18755941 0.46643946
0.023447894 0.0923115 -0.058681034 0.08699756 0.11527297 0.049952026 0.13285352 0.050083134
0.037070937 0.1002196 0.14709291 -0.007321128 0.09069137 0.16203438 0.14603937 0.16060163
0.07946011 0.19314012 0.09448911 0.25204748 -0.059559666 0.03786279 -0.018213646 -0.022804482
0.05854623 0.12890136 0.11958849 0.10169126 0.064114004 0.15768197 -0.20595004 0.2696392
0.15554819 -0.0059568407 0.10493385 0.19491059 0.07650356 -0.057160374 0.056165215 0.0064858133
0.074978545 -0.035290822 0.12795474 0.11847555 0.016129572 0.07624936 0.17505491 0.0377974
00000000: d137 fdbd 7a5c 6e3d 9855 56bd 1319 4cbe
00000010: 8e4e cd3d e3ad 613d 960b cb3d 5ac3 9c3c
00000020: 2528 333d 1077 af3a 6286 27be 13b2 973c
00000030: 4ba2 af3d 6327 a53d 74c5 56bc fc2c 13bd
00000040: c14c 023e f71a d43d af76 93ba c4ef 36ba
00000050: 0019 8cbc 7017 f63c 4aaf 2a3d dda0 bd3b
00000060: 00f9 5c3d c6cf 4a3e 1545 f3bb a3c1 b83d
00000070: f100 a63b 7f04 7bbd 2759 97bd d67a fe3d
00000080: e87c b7bd 93d2 3d3c 5754 373c 55ae 143d
00000090: a393 22be 5a17 40bc a96a 07be 7437 a9bd
000000a0: c5dc 143e 82a2 9dbe 7707 93bd 104b 3abe
000000b0: 4392 11be 1fde dc3b b84b 0abd d4d4 18bd
000000c0: 8af0 18bc c4ad b9be 1d33 5abe a944 74bd
000000d0: 08c5 3dbe 2824 55bd 4322 44be 5ce1 5dbe
000000e0: 1693 e8bd 2118 17be a674 00be 09ff 13be
000000f0: c24e 12be fc27 3dbe 6948 66be 1f7c 3fbe
00000100: dd23 bcbd c4a4 a5bd 5121 9abd 47ae afbd
00000110: e30c 52be 0007 5ebe 5aa6 453c abd8 4fbd
00000120: 89c9 00be f9a5 9d3d eb58 a8bd 828f 16be
00000130: e7d8 953d bcce f03c dd8b 913d f98f f53d
00000140: 6db0 cb3d 4221 633d 844b 0a3d 5598 c93c
00000150: 9297 733d 9785 813d 2d6f c3bd 8e60 1d3d
00000160: 2e4d 8bbd 811f dd3c bde4 bfbd d0e5 903d
00000170: f531 93bc 17c2 ae3d ce9a 0bbc d92a 963b
00000180: b460 923a d831 1f3d 7020 90bc cb12 1e3e
00000190: bfda 86bd 1ad0 0e3e fa45 ddbc 07a2 e73d
000001a0: 42b3 053e eac4 113e 207e e83c 8259 093e
000001b0: 24d6 7cbd 39a5 8f3d 6693 fa3d db50 8d3d
000001c0: c5d7 a3bd 3787 59ba 1453 863e 4ca0 073e
000001d0: 7f39 b53c 4c73 bd3d 18a5 213e 5953 6e3e
000001e0: fac0 193e a682 863e 72e2 903e 6a5a 493e
000001f0: 719f 293e 1e61 6d3e 7404 803e bf99 323e
00000200: 9369 b63d 4bb1 343e 15da 563e 9354 8f3d
00000210: b2df 443e 9e4a 4e3e adab 8d3e 4abd 403e
00000220: a3d0 f83d 3af2 303e 9255 933e 362b 643e
00000230: 6df0 363e ded2 153e ffb1 433e e6de 1e3d
00000240: d321 673e a467 093e 813e 163e 83b5 043e
00000250: af3c 7c3e 6ae4 8f3e 66c5 8a3e d25c a03e
00000260: aef0 f5bc 9776 2c3d 8ba7 493d c286 c93b
00000270: dd92 a73d 9ee2 ac3d 47ce 993c 8369 2f3e
00000280: ecd6 cebc b42b 2e3d 3db3 233b 03ae 923d
00000290: 9e7d dcbd 3cd1 263e 29c0 a2bd 91a9 413e
000002a0: e509 0fbe a74e 82bd 8efa 8e3d 619a 62bc
000002b0: 7714 2f3d 5a22 e63d 0eea 813d c1da 89bc
000002c0: 9cd0 da3b 2bd9 143e a7a5 cfbd 67fd 99bc
000002d0: 6ea0 04bc c4dd 383c 9c3c 09bd 57fc a73c
000002e0: 2e13 90bd 805d 42bc a615 e0bc 2756 1dbd
000002f0: 8686 9e3d 1585 013b 7f8b 0d3d 4e7e 903d
00000300: 6f43 3cbd 5828 d0bc fa19 e53d 9ad5 413d
00000310: 39c6 e93d 9929 0e3e 0e73 e83d b076 313e
00000320: 2c9e 023e dc1a 0c3e fbc5 c43d 1476 823d
00000330: 08d7 c33b 4272 fbbc 930f 403e 27d1 ee3e
00000340: cc15 c03c d00d bd3d 865b 70bd c72b b23d
00000350: 3c14 ec3d 7f9a 4c3d c10a 083e f923 4d3d
00000360: b2d7 173d ef3f cd3d 869f 163e 13e6 efbb
00000370: 66bc b93d 57ec 253e 588b 153e c174 243e
00000380: fbbb a23d 86c6 453e 8283 c13d 5e0c 813e
00000390: d6f4 73bd 0316 1b3d c934 95bc 77d0 babc
000003a0: 2cce 6f3d b8fe 033e cfea f43d 8243 d03d
000003b0: 344e 833d 6277 213e 91e4 52be 260e 8a3e
000003c0: 0648 1f3e 9a31 c3bb 8fe7 d63d a496 473e
000003d0: e6ad 9c3d ff20 6abd 7f0d 663d f286 d43b
000003e0: 5a8e 993d 1c8d 10bd 9106 033e 4fa3 f23d
000003f0: 2a22 843c a028 9c3d 9841 333e 72d1 1a3d

encoder.weight_hh_l0 f4 [400, 100]
-0.13483426 -0.19514087 0.019580537 -0.1032568 0.19863656 -0.05623183 -0.4645071 -0.012289015
0.11810346 -0.13770653 0.1635256 -0.07982889 -0.07342401 0.13587698 0.0102594625 -0.22538534
0.07731039 -0.09396845 -0.19662617 0.15354875 0.07317333 0.032032795 -0.1735587 0.08127285
-0.11522828 0.12998465 0.23809461 0.11694367 -0.13035938 -0.09530557 0.12737328 0.11385875
-0.16153893 0.015084635 -0.07651923 0.41869536 0.373879 0.041303158 -0.29177418 -0.053515665
0.015440076 0.064109325 0.18304862 -0.10834091 -0.2803016 -0.21157499 0.43906677 -0.15780549
-0.11669161 -0.37724042 -0.12452063 -0.0965384 0.093277805 0.046910886 -0.07052644 0.18608952
0.22880384 0.03893123 0.1952438 0.02961053 -0.078567594 0.0050013214 0.10441067 0.013626505
-0.07028155 -0.12088215 -0.22480263 0.12144007 -0.18536939 -0.27631855 -0.21181884 0.33814237
-0.117314145 0.07865509 0.03402276 0.089365184 -0.061796032 0.034386396 0.12728111 -0.059207022
0.16164486 -0.040221453 -0.031368747 -0.027972719 -0.0021334947 0.13167664 -0.16463168 -0.29530472
0.117360085 0.17913322 -0.23088872 0.10096052 0.012267518 0.012286126 -0.11511991 -0.036279347
-0.13362613 0.17994374 -0.03872911 -0.23916982 -0.29515007 0.10780043 -0.10669797 -0.19465704
-0.113600515 0.040832296 0.10266646 0.0043847864 0.0766591 0.029397873 0.12817718 0.010531019
-0.061168473 -0.0937347 0.027577668 -0.018575657 -0.14790395 0.39455462 -0.09269581 0.0077276807
-0.041795466 -0.14593424 0.030494379 -0.027556926 -0.018203013 -0.037696816 -0.12104021 -0.029460356
-0.08564322 0.0035816384 -0.051571306 0.012067705 0.07290801 0.0804249 0.05936307 0.14048414
-0.029507289 -0.17025253 0.07216376 0.049685776 -0.07504111 -0.049594656 -0.016223647 -0.047547527
0.0074591357 -0.021791292 0.006568044 -0.12913783 0.2633011 0.027676877 -0.036392987 -0.1968117
0.012321152 -0.028732324 0.0632754 -0.05956321 -0.002561969 -0.011289562 0.36234912 -0.04609945
-0.0033153896 0.060495257 -0.03324285 -0.08884548 0.021311166 0.104135245 -0.0002651576 -0.038840283
-0.23942332 0.07102374 0.059512194 0.14290154 -0.051726684 -0.016116671 0.018286368 -0.1256531
-0.016372634 -0.10202788 -0.049388785 -0.12043344 -0.09443979 -0.03150211 0.005083567 -0.10805383
0.05841206 -0.1191669 -0.014650788 -0.03317718 -0.19988294 -0.017929038 -0.10925321 -0.08651578
0.14698333 0.12147333 0.08207644 0.102745876 -0.15575798 0.0043203775 -0.17777155 -0.10240915
0.122675754 -0.1705646 0.27174282 -0.06506417 0.21549603 -0.0871579 0.004755119 0.07974708
0.055218045 -0.10732219 0.104478255 -0.11767124 -0.08000721 0.09099361 0.16972032 -0.17103986
0.071619555 0.052904263 0.039413035 0.13477108 0.035244595 0.3545424 -0.12499153 0.1273277
0.010982628 -0.19966407 0.080529064 0.03467819 -0.110509746 0.17020467 0.12570304 0.14452076
-0.075181015 0.13772814 -0.0056042047 -0.012694606 -0.018278811 0.05532151 -0.05246497 -0.051152118
0.061844353 -0.0528365 -0.057894066 -0.10721298 0.017227681 -0.15967488 -0.057443194 -0.014400664
-0.08267961 0.1109629 -0.064180344 0.03764743 -0.03604678 0.036097392 0.0040911282 0.06295147
00000000: fe11 0abe 02d3 47be 5d67 a03c 4d78 d3bd
00000010: 6267 4b3e 5953 66bd e0d3 edbe dd57 49bc
00000020: 3ae0 f13d f102 0dbe 4173 273e 547d a3bd
00000030: 545f 96bd 5623 0b3e 4e17 283c 6acb 66be
00000040: e954 9e3d 8872 c0bd 5f58 49be e23b 1d3e
00000050: e6db 953d d234 033d 5fb9 31be 6172 a63d
00000060: cefc ebbd b21a 053e 13cf 733e 2a80 ef3d
00000070: ee7c 05be 912f c3bd 246e 023e c72e e93d
00000080: 766a 25be 8b25 773c 1db6 9cbd 3d5f d63e
00000090: 116d bf3e 802d 293d 6d63 95be 3e33 5bbd
000000a0: 5ff8 7c3c c04b 833d 1971 3b3e d7e1 ddbd
000000b0: b183 8fbe 1da7 58be 5ccd e03e c397 21be
000000c0: 03fc eebd a825 c1be ac04 ffbd edb5 c5bd
000000d0: 6f08 bf3d a125 403d 2b70 90bd 408e 3e3e
000000e0: 8e4b 6a3e 5a76 1f3d feed 473e c891 f23c
000000f0: 0ce8 a0bd 20e2 a33b 43d5 d53d b441 5f3c
00000100: c6ef 8fbd 1091 f7bd a932 66be 92b5 f83d
00000110: 79d1 3dbe a079 8dbe 0ae7 58be ff20 ad3e
00000120: 6642 f0bd eb15 a13d 735b 0b3d 1805 b73d
00000130: d61d 7dbd c0d8 0c3d fb55 023e 1083 72bd
00000140: 3b86 253e 40bf 24bd 847c 00bd 0b27 e5bc
00000150: 1ad2 0bbb 3ed6 063e 3595 28be 2e32 97be
00000160: 7c5a f03d b36e 373e 186e 6cbe 64c4 ce3d
00000170: b3fd 483c bf4b 493c fdc3 ebbd a799 14bd
00000180: 4ad5 08be 2c43 383e 6aa2 1ebd efe8 74be
00000190: e91d 97be 79c6 dc3d 7784 dabd 2d54 47be
000001a0: 63a7 e8bd c43f 273d cb42 d23d 41ae 8f3b
000001b0: 72ff 9c3d cfd3 f03c e140 033e 4c8a 2c3c
000001c0: cb8b 7abd faf7 bfbd 90ea e13c fa2b 98bc
000001d0: 2274 17be 1003 ca3e 4dd7 bdbd 7c38 fd3b
000001e0: b931 2bbd c96f 15be 59cf f93c 10bf e1bc
000001f0: 7c1e 95bc fa67 1abd eee3 f7bd d856 f1bc
00000200: b665 afbd ecb9 6a3b 6f3c 53bd a0b7 453c
00000210: cb50 953d cfb5 a43d b126 733d 13db 0f3e
00000220: 45b9 f1bc ae56 2ebe 98ca 933d 5083 4b3d
00000230: 27af 99bd c423 4bbd 74e7 84bc 32c1 42bd
00000240: c46b f43b a783 b2bc bf38 d73b b53c 04be
00000250: 67cf 863e 9eba e23c d010 15bd 0289 49be
00000260: a8de 493c 0d60 ebbc 8896 813d 8df8 73bd
00000270: b5e6 27bb dbf7 38bc d385 b93e c7d2 3cbd
00000280: 0247 59bb e0c9 773d a829 08bd 9ef4 b5bd
00000290: c194 ae3c dc44 d53d da04 8bb9 fd16 1fbd
000002a0: 632b 75be e574 913d 0fc3 733d c854 123e
000002b0: 5cdf 53bd 1c07 84bc 4bcd 953c 35ab 00be
000002c0: e71f 86bc fef3 d0bd e54b 4abd cfa5 f6bd
000002d0: a669 c1bd 5b08 01bd 0d94 a63b 544b ddbd
000002e0: 7c41 6f3d c70d f4bd dc09 70bc cbe4 07bd
000002f0: 1dae 4cbe ebdf 92bc 26c0 dfbd 2f2f b1bd
00000300: cc82 163e 02c7 f83d b117 a83d 6e6c d23d
00000310: 057f 1fbe f491 8d3b bf09 36be e3bb d1bd
00000320: 6d3d fb3d 7da8 2ebe e021 8b3e 5d40 85bd
00000330: feaa 5c3e d77f b2bd d4d0 9b3b 7052 a33d
00000340: 512c 623d bdcb dbbd b2f8 d53d 9efd f0bd
00000350: d2da a3bd dc5a ba3d 2acb 2d3e 1325 2fbe
00000360: 46ad 923d 24b2 583d 906f 213d 6e01 0a3e
00000370: a35c 103d 9586 b53e 8ffb ffbd 3162 023e
00000380: 7bf0 333c bd74 4cbe 6cec a43d b80a 0e3d
00000390: ef52 e2bd 224a 2e3e 4cb8 003e 40fd 133e
000003a0: 81f8 99bd 9b08 0d3e 7aa3 b7bb 09fd 4fbc
000003b0: 72bd 95bc cf98 623d 82e5 56bd e284 51bd
000003c0: 8150 7d3d 166b 58bd 5422 6dbd 7b92 dbbd
000003d0: 1121 8d3c d081 23be 8e49 6bbd c3f0 6bbc
000003e0: ed53 a9bd 8440 e33d fc70 83bd 3134 1a3d
000003f0: caa5 13bd dcda 133d df0e 863b b3ec 803d

encoder.bias_ih_l0 f4 [400]
0.20675728 -0.1019559 0.19246934 0.31815612 0.13950974 0.046139818 0.1976176 0.1956921
-0.11510089 -0.21667519 0.3608285 -0.1574684 -0.11014914 -0.07041398 0.16649236 0.00070345605
0.19843292 0.30826938 0.14335318 0.121417016 0.35029444 -0.026373856 0.09512271 -0.07799327
-0.014315815 -0.05137555 0.10807172 -0.07193094 -0.12024332 0.22371076 0.27750856 0.053645056
0.0084217675 0.11309462 -0.12422979 0.08833078 0.098219775 0.16303374 0.056601625 0.36015117
-0.12872331 0.18728583 0.30862233 0.083242774 -0.14874181 0.026196482 0.12293991 0.05500386
0.011351782 0.0069589615 -0.12115865 0.08797096 -0.19693258 -0.03448128 0.21880646 -0.00092755543
0.27108264 0.07670117 0.26519492 0.0818514 0.031842053 0.10050752 0.008949999 -0.039854772
-0.029318383 0.16664168 0.036072318 -0.18310012 0.18817905 0.14804052 0.007609496 0.23099843
-0.030096117 0.16450915 -0.025402904 -0.12798044 0.09963164 0.33813858 0.2415894 0.024726894
0.0086277025 -0.19378667 0.1458944 -0.026271215 -0.1979324 -0.33306128 -0.033052474 0.43624625
0.16643128 -0.26288205 0.19222082 0.13748312 -0.008769757 -0.21754803 0.027183875 -0.108705856
0.17214134 0.11719819 0.012227861 -0.009674046 -0.11303157 0.09831344 0.21500848 -0.27266577
0.12208848 -0.23291877 -0.08897711 -0.1914381 0.017855294 -0.13733573 -0.18887106 -0.08258841
-0.14958704 0.1828845 -0.054425564 0.38192037 -0.039627485 -0.002346449 -0.17813668 0.024480859
-0.12464127 0.45893836 0.11304145 -0.035220504 -0.025685662 -0.1507321 0.032905925 0.22731501
-0.1565561 -0.28359482 -0.29214194 -0.12583627 0.32122272 -0.4208118 -0.22388165 -0.089504905
0.059292052 -0.19128063 -0.36094412 -0.19869502 -0.09555763 -0.056835983 -0.16803849 0.2503716
0.077152714 0.24494807 -0.11135435 -0.21603397 -0.09421255 -0.22191474 -0.137269 -0.19406529
-0.11527857 -0.24618672 -0.041398983 -0.24538833 -0.14832997 -0.20966063 -0.30130306 -0.22551829
0.055515066 0.19489862 0.49366456 -0.06812633 -0.019857805 -0.18386021 0.06589826 -0.01206917
-0.16027081 -0.40203592 0.3384107 -0.2939029 0.20128226 -0.16979544 0.320617 0.5443877
-0.21214217 -0.20537819 -0.13688608 -0.112395495 0.24939753 0.08797356 -0.4015731 -0.17992525
-0.0125864055 0.17134556 0.50689024 -0.14717077 -0.058556974 -0.15436286 -0.016226273 -0.05850801
-0.09276556 -0.06268429 0.034479015 0.019401457 0.010235721 0.3087799 -0.05885044 -0.2748667
-0.05449308 0.004469561 0.12844993 0.08601277 0.15532725 -0.0004648613 -0.024286643 -0.28108466
0.00847709 0.022633387 -0.05795039 -0.040414035 0.04902773 0.27302203 0.070849314 -0.12445173
-0.20636016 0.038746778 -0.004550891 -0.042303562 0.087375 0.27919438 -0.15991998 0.028769493
-0.14121822 0.15007 0.052238896 -0.019984314 0.2255942 -0.035144344 -0.083270416 -0.13977191
-0.17629273 -0.16763276 0.116949365 -0.09457483 -0.054081004 0.051817406 -0.06467633 -0.005905642
-0.21344158 -0.21873817 0.05246848 -0.1612821 -0.017356088 -0.11128092 0.034807812 -0.22199178
0.017116522 -0.110693246 -0.0059465147 -0.053734362 0.1197849 0.18056063 -0.031003077 -0.07908929
00000000: 2eb8 533e 41ce d0bd af16 453e 5ce5 a23e
00000010: a4db 0e3e 1bfd 3c3d 455c 4a3e 8363 483e
00000020: 04ba ebbd 1ae0 5dbe 83be b83e 653f 21be
00000030: df95 e1bd 3435 90bd f97c 2a3e 2368 383a
00000040: 0032 4b3e 7cd5 9d3e 2dcb 123e 7ca9 f83d
00000050: cb59 b33e fc0d d8bc b2cf c23d efba 9fbd
00000060: e18c 6abc 2b6f 52bd b554 dd3d 8750 93bd
00000070: 2142 f6bd 6f14 653e 9a15 8e3e ebba 5b3d
00000080: 74fb 093c 279e e73d 306c febd c5e6 b43d
00000090: 7327 c93d 51f2 263e 1bd7 673d bc65 b83e
000000a0: 0bd0 03be dbc7 3f3e bf03 9e3e 307b aa3d
000000b0: c64f 18be 019a d63c ebc7 fb3d ba4b 613d
000000c0: d3fc 393c 0008 e43b 0722 f8bd 1e2a b43d
000000d0: b2a8 49be 3e3c 0dbd cd0e 603e 3127 73ba
000000e0: 58cb 8a3e 8115 9d3d a1c7 873e b5a1 a73d
000000f0: d06c 023d e3d6 cd3d 04a3 123c c23e 23bd
00000100: 1b2d f0bc 1ea4 2a3e 91c0 133d 997e 3bbe
00000110: 02b2 403e ef97 173e 1459 f93b da8a 6c3e
00000120: 228c f6bc 1675 283e c019 d0bc 4e0d 03be
00000130: ac0b cc3d 8020 ad3e 3663 773e 0e90 ca3c
00000140: 355b 0d3c 0370 46be 5765 153e bb36 d7bc
00000150: cbae 4abe 0287 aabe 0862 07bd ab5b df3e
00000160: f66c 2a3e 7a98 86be 89d5 443e 60c8 0c3e
00000170: 07af 0fbc e9c4 5ebe b8b0 de3c 2da1 debd
00000180: d245 303e 9b05 f03d 5e57 483c e47f 1ebc
00000190: 197d e7bd 8f58 c93d 2f2b 5c3e d99a 8bbe
000001a0: 8609 fa3d 4282 6ebe a239 b6bd 5908 44be
000001b0: 4445 923c bda1 0cbe 6a67 41be 1d24 a9bd
000001c0: 582d 19be 1346 3b3e 57ed 5ebd 118b c33e
000001d0: 6e50 22bd e2c6 19bb 7669 36be 158c c83c
000001e0: ec43 ffbd f8f9 ea3e 4782 e73d 6043 10bd
000001f0: bd6a d2bc 8459 1abe 5dc8 063d 44c5 683e
00000200: 3e50 20be 5733 91be a193 95be 39db 00be
00000210: 4e77 a43e a574 d7be 3b41 65be 594e b7bd
00000220: 39dc 723d 12df 43be abcd b8be b576 4bbe
00000230: b8b3 c3bd d9cc 68bd 4812 2cbe b530 803e
00000240: 3e02 9e3d abd3 7a3e c00d e4bd 0238 5dbe
00000250: 82f2 c0bd 9e3d 63be 3f90 0cbe 0db9 46be
00000260: 2c17 ecbd 5f18 7cbe fb91 29bd 1447 7bbe
00000270: d0e3 17be 47b1 56be 6544 9abe 44ee 66be
00000280: c463 633d 8193 473e 9ac1 fc3e d185 8bbd
00000290: d6ac a2bc da45 3cbe abf5 863d c5bd 45bc
000002a0: 081e 24be a7d7 cdbe 2b44 ad3e 717a 96be
000002b0: f01c 4e3e dbde 2dbe e927 a43e fe5c 0b3f
000002c0: cc3b 59be a94e 52be dd2b 0cbe 9c2f e6bd
000002d0: 1162 7f3e 7b2b b43d fd9a cdbe 533e 38be
000002e0: 3637 4ebc 3675 2f3e 8fc3 013f efb3 16be
000002f0: 70d9 6fbd 4c11 1ebe f6ec 84bc 18a6 6fbd
00000300: dffb bdbd 9f60 80bd de39 0d3d ceef 9e3c
00000310: bab3 273c 6618 9e3e 290d 71bd 54bb 8cbe
00000320: 2334 5fbd 6575 923b 6188 033e 7727 b03d
00000330: 1b0e 1f3e a1b8 f3b9 c8f4 c6bc 54ea 8fbe
00000340: 7ee3 0a3c a769 b93c 635d 6dbd 3089 25bd
00000350: 4dd1 483d 8bc9 8b3e 7219 913d 8ce0 febd
00000360: 1450 53be f1b4 1e3d a41f 95bb 8046 2dbd
00000370: aaf1 b23d 91f2 8e3e 10c2 23be 00ae eb3c
00000380: 829b 10be f3ab 193e 74f8 553d 25b6 a3bc
00000390: 2a02 673e 84f3 0fbd ae89 aabd 5e20 0fbe
000003a0: 1586 34be eca7 2bbe 2683 ef3d 73b0 c1bd
000003b0: 0b84 5dbd 7d3e 543d 0675 84bd 1e84 c1bb
000003c0: 6e90 5abe e6fc 5fbe 30e9 563d 2327 25be
000003d0: 5b2e 8ebc 40e7 e3bd a392 0e3d d051 63be
000003e0: f337 8c3c 24b3 e2bd fbda c2bb 9018 5cbd
000003f0: c951 f53d e3e4 383e 2afa fdbc 91f9 a1bd

encoder.bias_hh_l0 f4 [400]
0.22444262 -0.0028842685 0.17205581 0.30451396 0.090804584 0.07023313 0.3103274 0.16979173
-0.09299128 -0.22939692 0.26240104 -0.037399523 -0.024396067 0.08365082 0.21133086 0.025023429
0.19331162 0.17143382 0.026785154 0.035367493 0.39756536 -0.06302209 0.051755283 -0.06715051
0.0003955835 0.089493036 0.08202668 -0.003270606 -0.0506135 0.117060654 0.18548341 -0.097147405
0.066596135 0.07621943 -0.2289252 0.07078549 0.022613773 0.02396128 0.009948306 0.47141114
-0.27532315 0.2288667 0.27016976 -0.03575917 -0.13045834 0.027990235 0.12859192 -0.04919331
0.0773466 -0.094860986 -0.2540851 0.23149388 -0.20564456 0.03432643 0.17654029 -0.07913037
0.1923712 0.033869587 0.42296916 0.13104051 -0.023112956 0.12719828 0.029155828 -0.019735472
-0.20064147 0.18981119 -0.000800666 -0.2531856 0.23045371 0.14785911 0.06735921 0.03387918
0.08022891 0.017818881 -0.033025287 -0.030407803 0.21965529 0.35999343 0.25329033 -0.05699299
0.05641616 -0.1693091 -0.01705486 -0.13256896 -0.23469767 -0.31045914 -0.15106842 0.25639883
0.033800405 -0.17048374 0.06792156 0.122919925 -0.15287638 -0.1917571 -0.016205562 -0.033727307
0.1506177 0.06440274 0.07950746 0.13873835 0.07827751 -0.04093901 0.2303231 -0.27733767
0.11508811 -0.29490328 -0.045670647 -0.26484996 -0.023414701 -0.15997623 -0.0453732 -0.04750171
-0.18818015 0.22628345 -0.07287943 0.24011898 -0.04835041 -0.09126822 -0.1613968 0.07562649
-0.22503167 0.42941943 0.2119707 0.019385232 0.09774572 -0.111397445 0.10564639 0.20138155
-0.16686411 -0.29464626 -0.22978576 -0.14105844 0.40759298 -0.329001 -0.22331332 -0.13809885
0.069647156 -0.13267758 -0.27908373 -0.20864864 0.0052143196 -0.06281158 -0.29415572 0.28465417
0.120045096 0.35671547 -0.083120115 -0.31099576 -0.15951234 -0.23442426 -0.013326248 -0.12704545
-0.1669796 -0.2168559 -0.1500526 -0.28917453 -0.28744176 -0.28596193 -0.324574 -0.24177241
0.05376346 0.08078505 0.47276258 -0.14016753 -0.112152174 -0.077488 0.063198544 -0.03682644
-0.16324879 -0.41850087 0.2371772 -0.24566188 0.31617147 -0.12673838 0.25675163 0.424132
-0.058908697 -0.28679195 -0.10128495 -0.2215588 0.21776415 0.071763225 -0.33667403 -0.14595525
-0.09102541 0.29830953 0.46205842 -0.18427102 -0.08521556 -0.1225208 -0.09861671 -0.15877701
-0.04272938 -0.15662807 0.035687305 -0.119130515 -0.051351707 0.27502003 0.008717417 -0.22735158
-0.057535153 0.13195291 0.19624375 0.052401874 0.14891031 -0.02198091 -0.038932346 -0.2587334
-0.13596714 0.13278504 -0.029763488 -0.15172398 -0.04728811 0.32738203 0.07940331 -0.24550232
-0.06489918 0.051065817 -0.029871436 -0.1668161 0.03269509 0.14327855 -0.12101234 -0.0060391147
0.042811494 0.047797907 0.09912103 0.12573297 0.3001912 -0.11782397 -0.10430023 0.022441626
0.015783424 -0.054646917 0.13045941 -0.0991678 -0.010342555 0.091451354 0.06711786 -0.06570984
-0.32895678 -0.22857179 -0.09723626 -0.03545853 -0.08969303 -0.09268989 -0.089558505 -0.26885086
-0.09589511 -0.05590968 -0.024681756 -0.005466979 0.09978618 0.14016266 -0.04386821 -0.02306354
00000000: 49d4 653e ff05 3dbb 662f 303e 41e9 9b3e
00000010: c1f7 b93d 63d6 8f3d 3ce3 9e3e e2dd 2d3e
00000020: 3672 bebd 07e7 6abe 6e59 863e 3e30 19bd
00000030: 43da c7bc 1f51 ab3d 1e67 583e effd cc3c
00000040: 7bf3 453e 598c 2f3e 8a6c db3c 81dd 103d
00000050: b08d cb3e ba11 81bd 59fd 533d 3586 89bd
00000060: 5266 cf39 2048 b73d 9bfd a73d aa57 56bb
00000070: 1a50 4fbd 7fbd ef3d 5def 3d3e 38f5 c6bd
00000080: 8e63 883d ef18 9c3d 5e6b 6abe fcf7 903d
00000090: 8540 b93c 724a c43c 38fe 223c cd5c f13e
000000a0: 28f7 8cbe 085c 6a3e b153 8a3e 3578 12bd
000000b0: df96 05be c74b e53c 9aad 033e ed7e 49bd
000000c0: e567 9e3d 7a46 c2bd 7117 82be bb0c 6d3e
000000d0: 7d94 52be df99 0c3d fac6 343e 1a0f a2bd
000000e0: f5fc 443e d6ba 0a3d 6a8f d83e 7c2f 063e
000000f0: 6257 bdbc 4440 023e 34d8 ee3c 49ac a1bc
00000100: f574 4dbe dd5d 423e c9e3 51ba 8ba1 81be
00000110: 0ffc 6b3e 6168 173e a0f3 893d e5c4 0a3d
00000120: 0e4f a43d e7f8 913c 8645 07bd c919 f9bc
00000130: 51ed 603e 0f51 b83e 45af 813e 7b71 69bd
00000140: a214 673d 5d5f 2dbe a2b6 8bbc 28c0 07be
00000150: 9654 70be 80f4 9ebe aeb1 1abe b546 833e
00000160: 4b72 0a3d 4a93 2ebe 751a 8b3d 71bd fb3d
00000170: a08b 1cbe f95b 44be 87c1 84bc a525 0abd
00000180: 873b 1a3e 95e5 833d cfd4 a23d 6d11 0e3e
00000190: f64f a03d aaaf 27bd d2d9 6b3e 34ff 8dbe
000001a0: 51b3 eb3d 90fd 96be 2511 3bbd 6a9a 87be
000001b0: 30d0 bfbc cfd0 23be 40d9 39bd 2791 42bd
000001c0: 4cb2 40be d9b6 673e d041 95bd c0e1 753e
000001d0: 140b 46bd d5ea babd 3445 25be 10e2 9a3d
000001e0: b46e 66be dddc db3e d90e 593e c7cd 9e3c
000001f0: e82e c83d 5824 e4bd 225d d83d f736 4e3e
00000200: 6dde 2abe e0db 96be f54c 6bbe a071 10be
00000210: 07b0 d03e d272 a8be 3fac 64be c969 0dbe
00000220: 2ba3 8e3d a2dc 07be 10e4 8ebe fda7 55be
00000230: e2dc aa3b 5ca3 80bd 949b 96be 31be 913e
00000240: 34da f53d 69a3 b63e e13a aabd d63a 9fbe
00000250: 3457 23be ea0c 70be 5656 5abc 3418 02be
00000260: b3fc 2abe 790f 5ebe 64a7 19be af0e 94be
00000270: 912b 93be 9a69 92be 902e a6be 3093 77be
00000280: 1337 5c3d a272 a53d f00d f23e 1488 0fbe
00000290: 0ab0 e5bd 07b2 9ebd 3d6e 813d 52d7 16bd
000002a0: b12a 27be bf45 d6be 94de 723e ca8e 7bbe
000002b0: 3ae1 a13e b5c7 01be f374 833e d427 d93e
000002c0: 3f4a 71bd 65d6 92be 7c6e cfbd 4fe0 62be
000002d0: 91fd 5e3e 99f8 923d 8a60 acbe 4b75 15be
000002e0: 886b babd 07bc 983e ec92 ec3e 8bb1 3cbe
000002f0: 7f85 aebd 2fec fabd 8ff7 c9bd 7196 22be
00000300: 0105 2fbd 1c63 20be da2c 123d b3fa f3bd
00000310: 2b56 52bd 6dcf 8c3e 7fd3 0e3c dace 68be
00000320: fba9 6bbd aa1e 073e 1ff4 483e 59a3 563d
00000330: f27b 183e 4f11 b4bc 8677 1fbd b478 84be
00000340: f83a 0bbe cdf8 073e 8fd2 f3bc 885d 1bbe
00000350: 2db1 41bd 9e9e a73e 349e a23d f664 7bbe
00000360: dce9 84bd 642a 513d f1b4 f4bc d7d1 2abe
00000370: 49eb 053d 9db7 123e 51d5 f7bd c4e3 c5bb
00000380: 1b5b 2f3d bdc7 433d f7ff ca3d 25c0 003e
00000390: a9b2 993e b24d f1bd 5c9b d5bd 80d7 b73c
000003a0: 3d4c 813c 72d5 5fbd 2797 053e 7d18 cbbd
000003b0: d273 29bc d94a bb3d 1775 893d e192 86bd
000003c0: 066d a8be b90e 6abe ce23 c7bd f73c 11bd
000003d0: fbb0 b7bd 32d4 bdbd 736a b7bd d2a6 89be
000003e0: a864 c4bd 8c01 65bd 6531 cabc 5824 b3bb
000003f0: b25c cc3d cd86 0f3e 27af 33bd c0ef bcbc

encoder2.weight_ih_l0 f4 [200, 100]
0.38457176 -0.19210014 0.06960094 -0.07612195 0.26116365 0.12546632 -0.3255425 -0.0008227477
-0.017236013 -0.23834996 -0.30226868 -0.12672696 0.07265087 0.24658826 -0.29107925 -0.34673777
0.050430585 -0.24916549 0.12958814 0.5020968 0.0730556 0.41195425 -0.27946597 0.14220348
-0.109973125 0.1403002 0.29396573 0.32767868 -0.23577903 0.007213401 0.051047094 0.072988406
-0.27585965 0.27427602 -0.4462601 0.14007032 0.2149291 0.13489515 -0.00043789684 0.042972036
0.22767286 -0.11718419 -0.24941666 -0.15347089 0.11579554 -0.15963219 -0.12767307 -0.12634179
0.13606481 -0.036817286 -0.065405995 -0.17436425 0.22277817 -0.38701105 0.037883386 0.17888632
0.21267241 -0.058863275 0.27656513 0.21727854 0.0050481865 -0.18431355 0.24588586 0.07352084
0.05432417 -0.14972302 0.24540329 0.19252619 -0.22436093 -0.046502564 -0.21510246 -0.20768116
-0.26079264 0.0700163 -0.4057579 0.3663689 -0.81485206 -0.017052468 -0.15821056 -0.18573657
0.4201771 0.45266828 -0.60357505 0.034891613 0.21925043 0.13558748 -0.18554501 0.080057435
0.23524292 0.07865712 0.16996011 -0.045708697 0.2156707 0.004619203 0.16442133 0.17333041
-0.090129405 0.20660317 0.22725117 -0.64212 -0.10784526 -0.31634527 0.10028042 -0.5807507
0.24065168 0.36176825 -0.425108 0.019709066 0.11467922 -0.24313514 0.43007886 -0.13790542
-0.1889415 0.21998017 0.8557266 -0.35797742 0.4259063 0.22877698 -0.06437351 0.46920675
-0.13445908 0.16150025 -0.14155947 0.14520417 -0.22384565 -0.3029764 0.35363436 0.045067236
-0.2345715 -0.076501444 -0.27402338 0.16330762 -0.23804255 -0.26802832 -0.26304838 -0.16979909
0.40736398 0.34080967 -0.5582196 -0.003271652 0.27285635 -0.29731926 -0.0068166335 -0.14329588
-0.124832906 -0.21097365 -0.3434626 -0.20842712 0.36409438 0.37338233 -0.30224144 0.28423613
0.28571558 0.28948736 0.04783837 0.08802977 -0.08602706 0.47010422 -0.026784297 0.09246281
-0.2416995 0.007403283 0.42890757 -0.26221243 -0.1332609 -0.5067298 0.0030977658 0.07622433
-0.41747266 -0.20982131 -0.21395327 0.8007637 -0.18544936 -0.27248135 -0.21737324 0.4415824
0.2824713 -0.2683193 -0.17356342 -0.11074228 0.23841433 0.31929123 0.052879885 -0.29571605
0.119900934 0.2704773 -0.37406516 -0.37523848 -0.14489642 0.3735801 -0.395768 0.33059487
-0.01310426 -0.113331564 -0.0934988 -0.3088008 -0.15060562 0.09746465 0.117827825 -0.2421726
0.25151867 -0.042896323 -0.13899145 -0.10145065 -0.21267337 0.036532816 0.56449646 0.05493354
-0.1029462 -0.12932013 0.15199685 -0.060537048 -0.050408836 -0.21838562 -0.17940398 0.29139203
0.2526858 -0.048124034 -0.274732 -0.3988435 0.2782658 -0.22108854 0.27238175 0.016243039
-0.000251704 0.05658507 -0.30588025 -0.12827854 -0.0175923 0.09474452 -0.055441443 -0.0022107263
0.24260673 -0.3175423 0.018728841 -0.5158756 0.098216265 0.14552695 0.1109155 0.63381195
0.0553532 0.060204916 0.60868526 0.22685795 -0.086032614 0.20262885 0.038992684 0.4858856
0.123861216 -0.36619008 0.034940753 0.15651037 -0.057812583 -0.07387483 0.038411826 0.14224951
00000000: 97e6 c43e e6b5 44be f08a 8e3d d3e5 9bbd
00000010: 3eb7 853e 3e7a 003e 82ad a6be aaad 57ba
00000020: 8a32 8dbc 0312 74be f6c2 9abe b6c4 01be
00000030: fbc9 943d a281 7c3e 5708 95be 9d87 b1be
00000040: 4d90 4e3d 3d25 7fbe c1b2 043e 6a89 003f
00000050: 2d9e 953d abeb d23e 2a16 8fbe ca9d 113e
00000060: 9739 e1bd dbaa 0f3e ad82 963e 80c5 a73e
00000070: 0f70 71be 655e ec3b c216 513d f27a 953d
00000080: 7a3d 8dbe e86d 8c3e 347c e4be 986e 0f3e
00000090: 6016 5c3e f421 0a3e 8595 e5b9 7203 303d
000000a0: 1323 693e 44fe efbd 1567 7fbe 7927 1dbe
000000b0: 3626 ed3d 9f76 23be bbbc 02be be5f 01be
000000c0: 9354 0b3e b9cd 16bd 94f3 85bd 8b8c 32be
000000d0: f61f 643e 5026 c6be 9c2b 1b3d fa2d 373e
000000e0: ccc6 593e 9e1a 71bd f299 8d3e 447e 5e3e
000000f0: 426b a53b b1bc 3cbe 81c9 7b3e 1892 963d
00000100: 0583 5e3d fe50 19be 004b 7b3e 9625 453e
00000110: dfbe 65be 7979 3ebd d243 5cbe 5faa 54be
00000120: 9d86 85be b564 8f3d 80bf cfbe b494 bb3e
00000130: 259a 50bf 9eb1 8bbc f301 22be ba31 3ebe
00000140: 7421 d73e 23c4 e73e e583 1abf 82ea 0e3d
00000150: 2f83 603e 72d7 0a3e 83ff 3dbe 27f5 a33d
00000160: 85e3 703e fc16 a13d 060a 2e3e 0b39 3bbd
00000170: c8d8 5c3e af5c 973b 115e 283e 877d 313e
00000180: c495 b8bd c88f 533e 88b4 683e fa61 24bf
00000190: fadd dcbd 02f8 a1be d25f cd3d 14ac 14bf
000001a0: 656d 763e b039 b93e c1a7 d9be e874 a13c
000001b0: f0dc ea3d 6bf8 78be 4c33 dc3e 1437 0dbe
000001c0: e179 41be 7b42 613e e610 5b3f d148 b7be
000001d0: 6410 da3e 8344 6a3e 42d6 83bd de3b f03e
000001e0: a4af 09be 5260 253e f7f4 10be 67b0 143e
000001f0: cb37 65be b91f 9bbe 900f b53e 6c98 383d
00000200: 8333 70be caac 9cbd cb4c 8cbe 1d3a 273e
00000210: 6dc1 73be 023b 89be 47ae 86be d0df 2dbe
00000220: 0392 d03e 9b7e ae3e 7be7 0ebf 3669 56bb
00000230: d4b3 8b3e 3b3a 98be 115e dfbb 28bc 12be
00000240: 65a8 ffbd 7a09 58be 54da afbe eb6d 55be
00000250: 946a ba3e f82b bf3e 64bf 9abe 6687 913e
00000260: 5049 923e b037 943e 2bf2 433d f448 b43d
00000270: f52e b0bd 80b1 f03e be6a dbbc 245d bd3d
00000280: 1380 77be 3d97 f23b c699 db3e b540 86be
00000290: 8c75 08be 0bb9 01bf e303 4b3b 801b 9c3d
000002a0: fabe d5be 66db 56be 9116 5bbe dafe 4c3f
000002b0: 70e6 3dbe ad82 8bbe 1797 5ebe 1717 e23e
000002c0: 14a0 903e 2661 89be 9cba 31be d9cc e2bd
000002d0: e322 743e 247a a33e 9498 583d 1868 97be
000002e0: 9f8e f53d 007c 8a3e 7885 bfbe 421f c0be
000002f0: ba5f 14be e445 bf3e 1aa2 cabe bb43 a93e
00000300: 40b3 56bc 611a e8bd 4d7c bfbd 231b 9ebe
00000310: 5c38 1abe 8c9b c73d b74f f13d 18fc 77be
00000320: 0ec7 803e 0eb4 2fbd c653 0ebe 5cc5 cfbd
00000330: 0cc7 59be 6fa3 153d d782 103f fe01 613d
00000340: 75d5 d2bd 7f6c 04be 10a5 1b3e b2f5 77bd
00000350: 7f79 4ebd 7ba0 5fbe adb5 37be 5631 953e
00000360: 0860 813e b51d 45bd aca9 8cbe 3735 ccbe
00000370: db78 8e3e 0965 62be 9f75 8b3e 1f10 853c
00000380: 24f7 83b9 bfc5 673d 569c 9cbe 735b 03be
00000390: ba1d 90bc 6a09 c23d 9116 63bd d5e1 10bb
000003a0: e66d 783e e894 a2be 3a6d 993c 6c10 04bf
000003b0: 9c25 c93d 0405 153e aa27 e33d 8041 223f
000003c0: 09ba 623d 6e99 763d ccd2 1b3f 734d 683e
000003d0: de31 b0bd f07d 4f3e cbb6 1f3d ffc5 f83e
000003e0: f3aa fd3d 447d bbbe 091e 0f3d 4144 203e
000003f0: e3cc 6cbd b04b 97bd b855 1d3d dba9 113e

encoder2.weight_hh_l0 f4 [200, 50]
0.09748046 -0.060549133 -0.44908944 -0.39167568 -0.17734613 -0.13400964 -0.32287517 -0.15924671
0.07236475 0.64830506 0.2486084 0.12373644 1.0528425 0.0015462391 -0.39604893 0.088405155
-0.012354168 -0.2166796 -0.16670439 0.90112 -0.25573587 -0.2472637 -0.63299805 -0.30552694
-0.40071785 -0.2512884 -0.53189117 0.18011099 -0.26495275 -0.18348193 0.19428861 0.3884445
-0.20263977 -0.23616026 -0.048049696 0.15764451 -0.3997912 0.11771987 0.12977855 -0.21914712
-0.22569615 0.4239822 0.18303712 0.49226868 0.2647248 -0.16989388 -0.06789772 0.2718747
-0.10869193 -0.16729218 -0.002238424 0.023920503 -0.16343144 -0.019621864 -0.0016725864 -0.042802066
-0.79970235 -0.3068861 0.045273803 0.15361117 0.07488881 0.1065183 0.38201812 -0.12667578
-0.4790446 0.5651724 0.13727468 -0.26930812 0.09449811 -0.20881703 -0.087819204 0.27968425
-0.0786904 -0.17657158 -0.27863413 -0.11248888 -0.23003834 0.39319074 0.02527894 0.12807876
-0.2640579 0.34487817 0.15591238 -0.4084988 -0.04125427 -0.3429537 -0.088901475 0.095442325
-0.34629422 -0.70284075 -0.077178314 0.2437321 -0.043227285 0.07733358 0.2950323 -0.63944626
-0.36382088 0.40035573 -0.13088769 -0.21269675 0.78438246 0.6124486 0.48934007 0.11930507
0.15319765 -0.44544572 0.29424724 -0.2014102 -0.7256822 -0.26154602 0.19555703 -0.19117756
0.111586 -0.15106823 0.21240221 -0.19347729 0.33338138 0.3754443 -0.01499798 -0.041683115
0.25564957 0.61407584 0.23600838 -0.20272802 -0.40203965 -0.20781986 -0.4861553 0.23995894
-0.13352844 -0.18232141 0.0023683487 -0.20112689 -0.17764588 -0.26484284 0.023428552 -0.32485
-0.5097524 0.41920543 0.18899773 0.036079824 -0.1715578 -0.19134738 -0.9549845 -0.42776203
0.47075257 -0.0733462 0.37816364 -0.01667785 -0.10580624 -0.099599674 0.2675332 -0.4619357
0.23247238 0.12729922 -0.39204577 -0.38398725 0.09406047 -0.01345356 -0.48979828 -0.50556207
-0.42931417 0.31554615 -0.018391922 0.6733072 0.1260353 0.10770176 0.11955641 0.21157005
0.112155594 -0.63474417 0.1742662 -0.00094367773 -0.18212177 0.065786 0.071194634 0.013313565
-0.11784726 -0.16010635 -0.40301955 0.06370272 0.10986254 0.01817655 0.75617373 0.10764079
0.41850114 -0.33149815 -0.26689398 0.10664994 -0.06679493 0.11641437 -0.2313706 0.3195029
-0.15225095 -0.41587523 -0.031932034 0.115837604 0.40462184 -0.39324304 -0.18243408 0.12906335
0.19010548 -0.022418736 -0.043139182 -0.10676177 0.42518172 -0.06494084 -0.2633094 -0.22980036
0.43616453 -0.53235406 -0.086732335 -0.13411559 -0.20278682 0.28012758 -0.43273008 0.21094757
-0.13413645 -0.2584741 0.24034403 0.3423052 -0.30149513 0.27573013 -0.058273636 -0.08674734
-0.04201836 -0.09354835 -0.513792 0.082493834 -0.05393328 0.39299598 -0.0148460325 0.37759516
-0.22517033 0.06547637 0.0750158 -0.2886896 -0.11095982 0.038525634 -0.03828372 -0.12410529
-0.81524897 0.23903616 -0.33067155 -0.61624366 -0.02687206 -0.058916893 -0.10541129 -0.090789124
0.44608712 -0.3580541 -0.19131157 -0.31145492 0.123453245 -0.050220046 0.13597752 0.13755123
00000000: d6a3 c73d 5e02 78bd 0def e5be b789 c8be
00000010: 399a 35be d339 09be e54f a5be 9211 23be
00000020: f833 943d 52f7 253f 3393 7e3e 8869 fd3d
00000030: 8bc3 863f 2dab ca3a edc6 cabe c30d b53d
00000040: 2369 4abc 42e1 5dbe 8eb4 2abe cdaf 663f
00000050: d0ef 82be b232 7dbe 290c 22bf 076e 9cbe
00000060: e42a cdbe e0a8 80be 052a 08bf 046f 383e
00000070: e3a7 87be b0e2 3bbe 98f3 463e 33e2 c63e
00000080: cd80 4fbe ffd3 71be c2cf 44bd 906d 213e
00000090: 6fb1 ccbe 1d17 f13d abe4 043e 1a68 60be
000000a0: e41c 67be 3214 d93e 156e 3b3e a40a fc3e
000000b0: 028a 873e a9f8 2dbe f60d 8bbd 2933 8b3e
000000c0: e099 debd a44e 2bbe 86b2 12bb eef4 c33c
000000d0: 925a 27be 08be a0bc b03a dbba 3851 2fbd
000000e0: 4bb9 4cbf 2d20 9dbe 0671 393d 3f4c 1d3e
000000f0: 4e5f 993d 4426 da3d e197 c33e 4cb7 01be
00000100: 5545 f5be 23af 103f bc91 0c3e c1e2 89be
00000110: 3a88 c13d 22d4 55be 8eda b3bd c632 8f3e
00000120: 6f28 a1bd 2ecf 34be 22a9 8ebe 9260 e6bd
00000130: 2c8f 6bbe 4c50 c93e c815 cf3c 1427 033e
00000140: 9932 87be df93 b03e 7fa7 1f3e c126 d1be
00000150: 3dfa 28bd a197 afbe fa11 b6bd 4477 c33d
00000160: 7a4d b1be 5fed 33bf aa0f 9ebd e894 793e
00000170: 180f 31bd 1161 9e3d 790e 973e c0b2 23bf
00000180: bb46 babe 6dfb cc3e 6c07 06be 2dcd 59be
00000190: 4acd 483f 6ec9 1c3f c88a fa3e 3756 f43d
000001a0: d8df 1c3e 7611 e4be 93a7 963e 7a3e 4ebe
000001b0: 4fc6 39bf 5ce9 85be 1a40 483e 0dc4 43be
000001c0: 3387 e43d a1b1 1abe f77f 593e e91e 46be
000001d0: f7b0 aa3e 3c3a c03e 16ba 75bc eabb 2abd
000001e0: 80e4 823e 1334 1d3f 2eac 713e ef97 4fbe
000001f0: 24d8 cdbe bbce 54be 59e9 f8be ccb7 753e
00000200: aebb 08be 77b2 3abe 4c36 1b3b 35f4 4dbe
00000210: cde8 35be 7b99 87be 3ced bf3c bd52 a6be
00000220: 227f 02bf 18a2 d63e 9f88 413e 70c8 133d
00000230: d9ac 2fbe 91f0 43be dd79 74bf a003 dbbe
00000240: 7b06 f13e 8836 96bd aa9e c13e fd9f 88bc
00000250: f1b0 d8bd eafa cbbd 1dfa 883e d682 ecbe
00000260: 3d0d 6e3e ba5a 023e 39ba c8be fa99 c4be
00000270: c7a2 c03d 526c 5cbc d7c6 fabe 846c 01bf
00000280: 11cf dbbe 448f a13e a8aa 96bc dc5d 2c3f
00000290: 660f 013e be92 dc3d fed9 f43d d2a5 583e
000002a0: d5b1 e53d 987e 22bf d772 323e 2461 77ba
000002b0: 217e 3abe cfba 863d 7ece 913d 2421 5a3c
000002c0: e759 f1bd ebf2 23be 9458 cebe 9276 823d
000002d0: 9dff e03d fde6 943c 9a94 413f c672 dc3d
000002e0: c845 d63e 20ba a9be 54a6 88be 496b da3d
000002f0: c8cb 88bd a86a ee3d 6aec 6cbe e295 a33e
00000300: ace7 1bbe 99ed d4be 2acb 02bd 443c ed3d
00000310: 982a cf3e 2757 c9be 00d0 3abe 2f29 043e
00000320: 03ab 423e 7fa7 b7bc b6b2 30bd eaa5 dabd
00000330: 6bb1 d93e b4ff 84bd 7dd0 86be c950 6bbe
00000340: f550 df3e 5b48 08bf b9a0 b1bd 9955 09be
00000350: 59a7 4fbe e26c 8f3e cc8e ddbe a402 583e
00000360: 115b 09be b856 84be bf1c 763e a142 af3e
00000370: 925d 9abe 802c 8d3e 56b0 6ebd 97a8 b1bd
00000380: 721b 2cbd 4796 bfbd df87 03bf 87f2 a83d
00000390: 25e9 5cbd c536 c93e c63c 73bc 2754 c13e
000003a0: 0d93 66be 7a18 863d e2a1 993d 20cf 93be
000003b0: e73e e3bd 0ecd 1d3d 64cf 1cbd ea2a febd
000003c0: 28b4 50bf e5c5 743e c84d a9be 25c2 1dbf
000003d0: cb22 dcbc d752 71bd e0e1 d7bd a6ef b9bd
000003e0: 8865 e43e de52 b7be 2ee7 43be 0577 9fbe
000003f0: 0ed5 fc3d 89b3 4dbd b13d 0b3e 3bda 0c3e

encoder2.bias_ih_l0 f4 [200]
0.2655496 0.35319117 -0.19421162 -0.35226735 0.23189978 0.42435643 -0.19872837 -0.35267836
0.17426783 0.32532722 0.08089305 0.2152752 -0.46920857 0.27755302 -0.39631242 -0.13567854
-0.21349245 -0.33584484 0.11866184 -0.37033945 -0.4243641 -0.30129015 0.39257285 0.034132108
0.3593933 -0.17212687 -0.3364861 0.41872746 -0.47512174 -0.32719687 0.015807651 0.28905606
0.20843096 0.16304737 0.23913321 -0.27304092 0.41075012 0.18846413 0.21579558 -0.42892882
-0.1602769 -0.17945878 -0.3835533 -0.21417466 -0.2595744 -0.12754013 -0.14894567 0.44266602
0.1831907 0.35778543 -0.4676677 -0.21823508 -0.2596533 -0.36611533 -0.17801416 -0.3282401
0.108317316 -0.027201273 -0.23787852 -0.47771987 -0.1338443 -0.28662664 -0.32270557 -0.07844319
-0.09949573 -0.30238265 -0.0934578 0.14610928 -0.32363653 0.14594156 0.013935868 -0.1596403
-0.41570136 -0.16475856 -0.61490023 -0.268604 0.28470495 -0.28507733 -0.24841854 -0.11038661
0.033554688 -0.36467788 0.12911105 -0.3402892 -0.21065693 0.012660754 0.07133307 -0.35497195
-0.30535576 -0.34707445 0.13084581 -0.04341478 -0.6676011 -0.14497422 0.02085005 0.014165395
0.06413754 -0.26937315 -0.22126879 0.018186409 -0.16832678 -0.008312902 -0.049388368 0.009798369
-0.07952031 -0.023718504 -0.023874661 -0.11393509 0.0715762 0.118137896 -0.092936315 0.09915019
0.15897101 -0.07434608 0.046881903 0.033924088 0.07318957 0.008927204 0.10634096 0.042400926
0.14063597 0.12230442 0.0380454 -0.027525885 -0.038635366 -0.08880113 0.03617986 -0.059273656
-0.012716308 0.07344655 0.05862357 0.06178219 -0.017690793 -0.09967152 -0.18662569 -0.016217714
-0.13529284 0.063109115 -0.11750718 0.017260386 0.031135784 0.016065001 0.15228935 -0.08991904
0.04401121 -0.017066808 0.13674264 0.062029272 -0.1650462 -0.06063663 0.48196492 0.67959565
-0.25903562 -0.26360512 0.52961344 0.47379482 -0.39857385 -0.113413066 0.4713521 0.36151984
0.3885672 0.3620072 -0.3099892 1.03678 -0.3008652 -0.38145402 -0.029195402 -0.30315697
0.5581719 -0.54052806 -0.47626182 -0.10472536 0.54976594 0.50131184 0.28240475 -0.12751494
-0.22806296 0.4187752 -0.33561185 -0.26575986 0.40002832 0.54603326 0.8443368 0.30269095
0.5198633 -0.18709862 0.9584188 0.3816233 0.28281876 -0.35370952 -0.3143392 -0.114667125
-0.16947226 -0.41897082 0.05322781 -0.4134534 -0.3643162 0.39366722 0.22233276 0.85858667
00000000: 1ef6 873e 79d5 b43e 69df 46be 635c b4be
00000010: 2377 6d3e 3f45 d93e 737f 4bbe 4292 b4be
00000020: 4473 323e 4a91 a63e 41ab a53d 1a71 5c3e
00000030: 1b3c f0be 6e1b 8e3e 76e9 cabe 51ef 0abe
00000040: c49d 5abe dbf3 abbe fb04 f33d 229d bdbe
00000050: 4046 d9be b442 9abe 4fff c83e 1cce 0b3d
00000060: 6602 b83e 0742 30be e847 acbe 7263 d63e
00000070: 2843 f3be 5986 a7be 0c7f 813c 28ff 933e
00000080: ed6e 553e e4f5 263e 56df 743e 05cc 8bbe
00000090: d74d d23e befc 403e 84f9 5c3e 8f9c dbbe
000000a0: a11f 24be 0bc4 37be 1961 c4be 9a50 5bbe
000000b0: f0e6 84be e199 02be 3785 18be 1fa5 e23e
000000c0: 5896 3b3e a72f b73e 2472 efbe 0479 5fbe
000000d0: 47f1 84be 7873 bbbe 5849 36be 160f a8be
000000e0: 78d5 dd3d 34d5 debc 6d96 73be b397 f4be
000000f0: 7b0e 09be bac0 92be aa39 a5be d3a6 a0bd
00000100: 6bc4 cbbd e6d1 9abe ce66 bfbd ac9d 153e
00000110: b0b3 a5be b471 153e 4453 643c bf78 23be
00000120: cfd6 d4be 78b6 28be 1a6a 1dbf 7786 89be
00000130: d9c4 913e a8f5 91be 6e61 7ebe 6012 e2bd
00000140: a470 093d 0fb7 babe b035 043e 633a aebe
00000150: 73b6 57be 0d6f 4f3c 1317 923d e2be b5be
00000160: 9757 9cbe beb3 b1be 72fc 053e b2d3 31bd
00000170: e8e7 2abf 1f74 14be b9cd aa3c f915 683c
00000180: 8b5a 833d 47eb 89be 4994 62be aafb 943c
00000190: db5d 2cbe d732 08bc 754b 4abd 5789 203c
000001a0: 8bdb a2bd 4f4d c2bc cb94 c3bc cd56 e9bd
000001b0: 8b96 923d 48f2 f13d 6555 bebd 410f cb3d
000001c0: 4cc9 223e c242 98bd 3d07 403d fcf3 0a3d
000001d0: 6ae4 953d 6843 123c 4ac9 d93d 98ac 2d3d
000001e0: e002 103e bd7a fa3d 7ed5 1b3d f77d e1bc
000001f0: 1e40 1ebd 5edd b5bd 5531 143d efc8 72bd
00000200: 1058 50bc 256b 963d 451f 703d 520f 7d3d
00000210: 48ec 90bc 9520 ccbd ce1a 3fbe 03db 84bc
00000220: 358a 0abe 5a3f 813d 9ba7 f0bd a765 8d3c
00000230: 7910 ff3c c09a 833c bdf1 1b3e 7927 b8bd
00000240: 1945 343d b1cf 8bbc 4306 0c3e 6812 7e3d
00000250: df01 29be 1d5e 78bd 1bc4 f63e fbf9 2d3f
00000260: 51a0 84be 40f7 86be bf94 073f 3c95 f23e
00000270: df11 ccbe 1c45 e8bd 1055 f13e 2119 b93e
00000280: 48f2 c63e 0259 b93e e8b6 9ebe 35b5 843f
00000290: 010b 9abe f14d c3be 322b efbc 6437 9bbe
000002a0: 5be4 0e3f 0c60 0abf 97d8 f3be 407a d6bd
000002b0: 76bd 0c3f f955 003f 5b97 903e 4793 02be
000002c0: 5689 69be b469 d63e 51d5 abbe ad11 88be
000002d0: 83d0 cc3e d6c8 0b3f 7526 583f 4ffa 9a3e
000002e0: c315 053f c896 3fbe ef5a 753f 2164 c33e
000002f0: 9fcd 903e 6a19 b5be 11f1 a0be 99d6 eabd
00000300: 238a 2dbe 5883 d6be 6705 5a3d 2ab0 d3be
00000310: a787 babe c08e c93e 33ab 633e 56cc 5b3f

encoder2.bias_hh_l0 f4 [200]
0.2799236 0.3340576 -0.105514824 -0.3093647 0.040447947 0.4128253 -0.1547856 -0.17837708
0.36978245 0.38844997 0.12570873 0.26526982 -0.52978075 0.2913349 -0.30530125 -0.18910512
-0.13234428 -0.37004295 0.37650928 -0.33805847 -0.3422803 -0.12626345 0.33682787 0.20900725
0.28919813 -0.13686699 -0.37859076 0.45635405 -0.3660865 -0.3391146 0.16934717 0.33666772
0.30993602 0.2505255 0.09371137 -0.18434544 0.18879494 0.32418567 0.25640213 -0.4227705
-0.4020033 -0.29254058 -0.1141903 -0.37004185 -0.21690945 -0.27026796 -0.31144223 0.47298974
0.16185635 0.23165402 -0.3159999 -0.110631146 -0.47057453 -0.22718886 -0.17298532 -0.47062084
-0.007924793 -0.12802118 -0.22860624 -0.40804648 -0.14826196 -0.423886 -0.3461505 0.058336455
-0.11171051 -0.3079349 -0.2076087 0.24918154 -0.31336036 0.076383285 0.08854464 -0.13880059
-0.33615893 -0.1069445 -0.3606907 -0.18148853 0.33155826 -0.2919524 -0.3966814 -0.12057835
0.09687794 -0.1622979 0.12293291 -0.14985664 -0.14105129 0.09553182 -0.080508664 -0.3352981
-0.38458776 -0.3863613 0.09417648 -0.0871132 -0.57163197 -0.16450043 -0.03586187 0.27067298
0.09505592 -0.44862273 -0.053327493 0.038241036 0.02561457 0.12229549 -0.00659703 -0.075533755
0.04896909 -0.1010355 0.16102906 -0.117019944 0.049860198 0.025450656 0.09280988 0.09147203
-0.042164218 -0.02671874 0.120869085 -0.016734606 0.03779086 0.13416691 0.04172046 0.19230118
0.1338341 0.0107637765 -0.0014858379 0.027790457 -0.07581122 -0.028893726 -0.079467736 0.046168275
-0.020104045 -0.08258985 0.014272361 -0.14601131 0.14922981 -0.083711825 -0.006306059 0.0729359
0.058757562 -0.009020518 -0.094040364 -0.09264657 -0.037456166 -0.11110121 -0.055511676 0.062288355
-0.020866372 0.13288073 -0.10543017 0.040383402 0.05076943 -0.03419086 0.47467965 0.70237935
-0.316096 -0.43831754 0.28460553 0.3584101 -0.4303788 -0.19208525 0.39245343 0.48967388
0.45133197 0.47812504 -0.26550817 1.0537311 -0.5616898 -0.14870894 -0.043166332 -0.16414826
0.5677827 -0.53139436 -0.5075724 -0.11583938 0.54050124 0.50459814 0.39875734 -0.12087879
-0.19865416 0.37972975 -0.11949867 -0.5211039 0.60158634 0.30005893 0.80886036 0.26820004
0.5149338 -0.36650625 1.0668111 0.54344004 0.2703325 -0.45046118 -0.35732856 -0.062004
-0.21803857 -0.35977748 0.022237226 -0.32909724 -0.5132691 0.45674178 0.31805998 0.6824326
00000000: 2552 8f3e 9909 ab3e 2818 d8bd 0d65 9ebe
00000010: bfac 253d d65d d33e 1e80 1ebe 7ba8 36be
00000020: 2054 bd3e eae2 c63e cab9 003e 72d1 873e
00000030: b69f 07bf d929 953e 7250 9cbe c6a4 41be
00000040: 4285 07be 4576 bdbe d3c5 c03e 0016 adbe
00000050: 5d3f afbe 354b 01be b474 ac3e ff05 563e
00000060: c711 943e dc26 0cbe a6d6 c1be 3da7 e93e
00000070: b16f bbbe 6ea0 adbe 5869 2d3e b65f ac3e
00000080: efaf 9e3e e144 803e bfeb bf3d 0dc5 3cbe
00000090: 7653 413e aafb a53e 2447 833e 6075 d8be
000000a0: 60d3 cdbe e1c7 95be 9bdc e9bd 2076 bdbe
000000b0: 831d 5ebe 9060 8abe 5b75 9fbe b62b f23e
000000c0: acbd 253e b636 6d3e bdca a1be 9592 e2bd
000000d0: 25ef f0be 32a4 68be 1023 31be 37f5 f0be
000000e0: fed6 01bc fc17 03be c117 6abe 78eb d0be
000000f0: fcd1 17be 9607 d9be a33a b1be 35f2 6e3d
00000100: 7bc8 e4bd a5a9 9dbe 6097 54be 7229 7f3e
00000110: c570 a0be d76e 9c3d e456 b53d be21 0ebe
00000120: 061d acbe b805 dbbd 74ac b8be 21d8 39be
00000130: 01c2 a93e c97a 95be d319 cbbe c8f1 f6bd
00000140: f167 c63d 6c31 26be 40c4 fb3d 0574 19be
00000150: c06f 10be 30a6 c33d bae1 a4bd 31ac abbe
00000160: b0e8 c4be 26d1 c5be 99df c03d 6868 b2bd
00000170: 7956 12bf cd72 28be e5e3 12bd a695 8a3e
00000180: aeac c23d e1b1 e5be ee6d 5abd a2a2 1c3d
00000190: a6d5 d13c 0f76 fa3d e62b d8bb 71b1 9abd
000001a0: d093 483d b3eb cebd cde4 243e 27a8 efbd
000001b0: 353a 4c3d e57d d03c 1b13 be3d b055 bb3d
000001c0: 63b4 2cbd 42e1 dabc 368a f73d 0317 89bc
000001d0: 97ca 1a3d 0d63 093e 13e3 2a3d 9aea 443e
000001e0: ce0b 093e 8d5a 303c 72c0 c2ba d0a8 e33c
000001f0: ea42 9bbd 89b2 ecbc fbbf a2bd f21a 3d3d
00000200: 3db1 a4bc de24 a9bd 9fd6 693c fd83 15be
00000210: b3cf 183e 1b71 abbd 0fa3 cebb 6b5f 953d
00000220: c5ab 703d cbca 13bc 3c98 c0bd 7cbd bdbd
00000230: a36b 19bd 0889 e3bd 3660 63bd 1322 7f3d
00000240: f4ef aabc e311 083e c6eb d7bd 1169 253d
00000250: 9bf3 4f3d b70b 0cbd 3609 f33e 22cf 333f
00000260: 56d7 a1be 286b e0be d1b7 913e 8781 b73e
00000270: 9c5a dcbe ffb1 44be a8ef c83e 89b6 fa3e
00000280: fc14 e73e cecc f43e b0f0 87be a9e0 863f
00000290: e7ca 0fbf 2847 18be 2ecf 30bd 7b16 28be
000002a0: 355a 113f 7609 08bf 44f0 01bf 323d edbd
000002b0: 4a5e 0a3f 582d 013f ec29 cc3e 4d8f f7bd
000002c0: ff6b 4bbe f06b c23e b8bb f4bd 1167 05bf
000002d0: 9001 1a3f 53a1 993e 7911 4f3f 8451 893e
000002e0: b4d2 033f b5a6 bbbe 448d 883f e31e 0b3f
000002f0: 0569 8a3e d9a2 e6be c5f3 b6be e8f7 7dbd
00000300: 8145 5fbe c134 b8be d82a b63c 6f7f a8be
00000310: 9b65 03bf 0fda e93e c2d8 a23e e7b3 2e3f
